…
I0403 10:52:30.452669  5436 net.cpp:294] The NetState phase (0) differed from the phase (1) specified by a rule in layer accuracy/top5
I0403 10:52:30.452980  5436 net.cpp:51] Initializing net from parameters: 
name: "VGG_ILSVRC_16_layers"
state {
  phase: TRAIN
  level: 0
  stage: ""
}
layer {
  name: "data"
  type: "Data"
  top: "data"
  top: "label"
  include {
    phase: TRAIN
  }
  transform_param {
    mirror: true
    crop_size: 224
    mean_file: "/home/data/ImageNet/data/ilsvrc12/imagenet_mean.binaryproto"
  }
  data_param {
    source: "examples/imagenet/ilsvrc12_train_lmdb"
    batch_size: 75
    backend: LMDB
  }
}
layer {
  name: "conv1_1"
  type: "Convolution"
  bottom: "data"
  top: "conv1_1"
  param {
    lr_mult: 0
  }
  param {
    lr_mult: 0
  }
  convolution_param {
    num_output: 64
    pad: 1
    kernel_size: 3
  }
}
layer {
  name: "relu1_1"
  type: "ReLU"
  bottom: "conv1_1"
  top: "conv1_1"
}
layer {
  name: "conv1_2"
  type: "Convolution"
  bottom: "conv1_1"
  top: "conv1_2"
  param {
    lr_mult: 0
  }
  param {
    lr_mult: 0
  }
  convolution_param {
    num_output: 64
    pad: 1
    kernel_size: 3
  }
}
layer {
  name: "relu1_2"
  type: "ReLU"
  bottom: "conv1_2"
  top: "conv1_2"
}
layer {
  name: "pool1"
  type: "Pooling"
  bottom: "conv1_2"
  top: "pool1"
  pooling_param {
    pool: MAX
    kernel_size: 2
    stride: 2
  }
}
layer {
  name: "conv2_1"
  type: "Convolution"
  bottom: "pool1"
  top: "conv2_1"
  param {
    lr_mult: 0
  }
  param {
    lr_mult: 0
  }
  convolution_param {
    num_output: 128
    pad: 1
    kernel_size: 3
  }
}
layer {
  name: "relu2_1"
  type: "ReLU"
  bottom: "conv2_1"
  top: "conv2_1"
}
layer {
  name: "conv2_2"
  type: "Convolution"
  bottom: "conv2_1"
  top: "conv2_2"
  param {
    lr_mult: 0
  }
  param {
    lr_mult: 0
  }
  convolution_param {
    num_output: 128
    pad: 1
    kernel_size: 3
  }
}
layer {
  name: "relu2_2"
  type: "ReLU"
  bottom: "conv2_2"
  top: "conv2_2"
}
layer {
  name: "pool2"
  type: "Pooling"
  bottom: "conv2_2"
  top: "pool2"
  pooling_param {
    pool: MAX
    kernel_size: 2
    stride: 2
  }
}
layer {
  name: "conv3_1"
  type: "Convolution"
  bottom: "pool2"
  top: "conv3_1"
  param {
    lr_mult: 1
  }
  param {
    lr_mult: 2
  }
  convolution_param {
    num_output: 256
    pad: 1
    kernel_size: 3
  }
}
layer {
  name: "relu3_1"
  type: "ReLU"
  bottom: "conv3_1"
  top: "conv3_1"
}
layer {
  name: "conv3_2"
  type: "Convolution"
  bottom: "conv3_1"
  top: "conv3_2"
  param {
    lr_mult: 1
  }
  param {
    lr_mult: 2
  }
  convolution_param {
    num_output: 256
    pad: 1
    kernel_size: 3
  }
}
layer {
  name: "relu3_2"
  type: "ReLU"
  bottom: "conv3_2"
  top: "conv3_2"
}
layer {
  name: "conv3_3"
  type: "Convolution"
  bottom: "conv3_2"
  top: "conv3_3"
  param {
    lr_mult: 1
  }
  param {
    lr_mult: 2
  }
  convolution_param {
    num_output: 256
    pad: 1
    kernel_size: 3
  }
}
layer {
  name: "relu3_3"
  type: "ReLU"
  bottom: "conv3_3"
  top: "conv3_3"
}
layer {
  name: "pool3"
  type: "Pooling"
  bottom: "conv3_3"
  top: "pool3"
  pooling_param {
    pool: MAX
    kernel_size: 2
    stride: 2
  }
}
layer {
  name: "conv4_1_local_channel"
  type: "Convolution"
  bottom: "pool3"
  top: "conv4_1"
  param {
    lr_mult: 1
  }
  param {
    lr_mult: 2
  }
  convolution_param {
    pad: 1
    kernel_size: 3
    weight_filler {
      type: "xavier"
    }
    bias_filler {
      type: "constant"
      value: 0
    }
    force_local_channel: true
    kernel_c: 8
    stride_c: 4
    num_output_per_group: 8
  }
}
layer {
  name: "relu4_1"
  type: "ReLU"
  bottom: "conv4_1"
  top: "conv4_1"
}
layer {
  name: "conv4_2_local_channel"
  type: "Convolution"
  bottom: "conv4_1"
  top: "conv4_2"
  param {
    lr_mult: 1
  }
  param {
    lr_mult: 2
  }
  convolution_param {
    pad: 1
    kernel_size: 3
    weight_filler {
      type: "xavier"
    }
    bias_filler {
      type: "constant"
      value: 0
    }
    force_local_channel: true
    kernel_c: 8
    stride_c: 4
    num_output_per_group: 4
  }
}
layer {
  name: "relu4_2"
  type: "ReLU"
  bottom: "conv4_2"
  top: "conv4_2"
}
layer {
  name: "conv4_3_pointwise"
  type: "Convolution"
  bottom: "conv4_2"
  top: "conv4_3"
  param {
    lr_mult: 1
  }
  param {
    lr_mult: 2
  }
  convolution_param {
    num_output: 512
    pad: 0
    kernel_size: 1
    stride: 1
    weight_filler {
      type: "xavier"
    }
    bias_filler {
      type: "constant"
      value: 0
    }
  }
}
layer {
  name: "relu4_3"
  type: "ReLU"
  bottom: "conv4_3"
  top: "conv4_3"
}
layer {
  name: "pool4"
  type: "Pooling"
  bottom: "conv4_3"
  top: "pool4"
  pooling_param {
    pool: MAX
    kernel_size: 2
    stride: 2
  }
}
layer {
  name: "conv5_1_local_channel"
  type: "Convolution"
  bottom: "pool4"
  top: "conv5_1"
  param {
    lr_mult: 1
  }
  param {
    lr_mult: 2
  }
  convolution_param {
    pad: 1
    kernel_size: 3
    weight_filler {
      type: "xavier"
    }
    bias_filler {
      type: "constant"
      value: 0
    }
    force_local_channel: true
    kernel_c: 8
    stride_c: 4
    num_output_per_group: 8
  }
}
layer {
  name: "relu5_1"
  type: "ReLU"
  bottom: "conv5_1"
  top: "conv5_1"
}
layer {
  name: "conv5_2_local_channel"
  type: "Convolution"
  bottom: "conv5_1"
  top: "conv5_2"
  param {
    lr_mult: 1
  }
  param {
    lr_mult: 2
  }
  convolution_param {
    pad: 1
    kernel_size: 3
    weight_filler {
      type: "xavier"
    }
    bias_filler {
      type: "constant"
      value: 0
    }
    force_local_channel: true
    kernel_c: 8
    stride_c: 4
    num_output_per_group: 4
  }
}
layer {
  name: "relu5_2"
  type: "ReLU"
  bottom: "conv5_2"
  top: "conv5_2"
}
layer {
  name: "conv5_3_pointwise"
  type: "Convolution"
  bottom: "conv5_2"
  top: "conv5_3"
  param {
    lr_mult: 1
  }
  param {
    lr_mult: 2
  }
  convolution_param {
    num_output: 512
    pad: 0
    kernel_size: 1
    stride: 1
    weight_filler {
      type: "xavier"
    }
    bias_filler {
      type: "constant"
      value: 0
    }
  }
}
layer {
  name: "relu5_3"
  type: "ReLU"
  bottom: "conv5_3"
  top: "conv5_3"
}
layer {
  name: "pool5"
  type: "Pooling"
  bottom: "conv5_3"
  top: "pool5"
  pooling_param {
    pool: MAX
    kernel_size: 2
    stride: 2
  }
}
layer {
  name: "fc6"
  type: "InnerProduct"
  bottom: "pool5"
  top: "fc6"
  param {
    lr_mult: 1
  }
  param {
    lr_mult: 2
  }
  inner_product_param {
    num_output: 4096
  }
}
layer {
  name: "relu6"
  type: "ReLU"
  bottom: "fc6"
  top: "fc6"
}
layer {
  name: "drop6"
  type: "Dropout"
  bottom: "fc6"
  top: "fc6"
  dropout_param {
    dropout_ratio: 0.5
  }
}
layer {
  name: "fc7"
  type: "InnerProduct"
  bottom: "fc6"
  top: "fc7"
  param {
    lr_mult: 1
  }
  param {
    lr_mult: 2
  }
  inner_product_param {
    num_output: 4096
  }
}
layer {
  name: "relu7"
  type: "ReLU"
  bottom: "fc7"
  top: "fc7"
}
layer {
  name: "drop7"
  type: "Dropout"
  bottom: "fc7"
  top: "fc7"
  dropout_param {
    dropout_ratio: 0.5
  }
}
layer {
  name: "fc8"
  type: "InnerProduct"
  bottom: "fc7"
  top: "fc8"
  param {
    lr_mult: 1
    decay_mult: 1
  }
  param {
    lr_mult: 2
    decay_mult: 0
  }
  inner_product_param {
    num_output: 1000
    weight_filler {
      type: "xavier"
    }
    bias_filler {
      type: "constant"
      value: 0
    }
  }
}
layer {
  name: "loss"
  type: "SoftmaxWithLoss"
  bottom: "fc8"
  bottom: "label"
  top: "loss/loss"
}
I0403 10:52:30.453233  5436 layer_factory.hpp:77] Creating layer data
I0403 10:52:30.453438  5436 db_lmdb.cpp:35] Opened lmdb examples/imagenet/ilsvrc12_train_lmdb
I0403 10:52:30.453508  5436 net.cpp:84] Creating Layer data
I0403 10:52:30.453523  5436 net.cpp:380] data -> data
I0403 10:52:30.453562  5436 net.cpp:380] data -> label
I0403 10:52:30.453582  5436 data_transformer.cpp:25] Loading mean file from: /home/data/ImageNet/data/ilsvrc12/imagenet_mean.binaryproto
I0403 10:52:30.460166  5436 data_layer.cpp:45] output data size: 75,3,224,224
I0403 10:52:30.604033  5436 net.cpp:122] Setting up data
I0403 10:52:30.604089  5436 net.cpp:129] Top shape: 75 3 224 224 (11289600)
I0403 10:52:30.604099  5436 net.cpp:129] Top shape: 75 (75)
I0403 10:52:30.604105  5436 net.cpp:137] Memory required for data: 45158700
I0403 10:52:30.604120  5436 layer_factory.hpp:77] Creating layer conv1_1
I0403 10:52:30.604152  5436 net.cpp:84] Creating Layer conv1_1
I0403 10:52:30.604161  5436 net.cpp:406] conv1_1 <- data
I0403 10:52:30.604183  5436 net.cpp:380] conv1_1 -> conv1_1
I0403 10:52:31.000156  5436 net.cpp:122] Setting up conv1_1
I0403 10:52:31.000212  5436 net.cpp:129] Top shape: 75 64 224 224 (240844800)
I0403 10:52:31.000221  5436 net.cpp:137] Memory required for data: 1008537900
I0403 10:52:31.000259  5436 layer_factory.hpp:77] Creating layer relu1_1
I0403 10:52:31.000283  5436 net.cpp:84] Creating Layer relu1_1
I0403 10:52:31.000293  5436 net.cpp:406] relu1_1 <- conv1_1
I0403 10:52:31.000305  5436 net.cpp:367] relu1_1 -> conv1_1 (in-place)
I0403 10:52:31.000711  5436 net.cpp:122] Setting up relu1_1
I0403 10:52:31.000733  5436 net.cpp:129] Top shape: 75 64 224 224 (240844800)
I0403 10:52:31.000739  5436 net.cpp:137] Memory required for data: 1971917100
I0403 10:52:31.000746  5436 layer_factory.hpp:77] Creating layer conv1_2
I0403 10:52:31.000766  5436 net.cpp:84] Creating Layer conv1_2
I0403 10:52:31.000773  5436 net.cpp:406] conv1_2 <- conv1_1
I0403 10:52:31.000788  5436 net.cpp:380] conv1_2 -> conv1_2
I0403 10:52:31.002936  5436 net.cpp:122] Setting up conv1_2
I0403 10:52:31.002969  5436 net.cpp:129] Top shape: 75 64 224 224 (240844800)
I0403 10:52:31.002977  5436 net.cpp:137] Memory required for data: 2935296300
I0403 10:52:31.002997  5436 layer_factory.hpp:77] Creating layer relu1_2
I0403 10:52:31.003012  5436 net.cpp:84] Creating Layer relu1_2
I0403 10:52:31.003021  5436 net.cpp:406] relu1_2 <- conv1_2
I0403 10:52:31.003036  5436 net.cpp:367] relu1_2 -> conv1_2 (in-place)
I0403 10:52:31.003440  5436 net.cpp:122] Setting up relu1_2
I0403 10:52:31.003464  5436 net.cpp:129] Top shape: 75 64 224 224 (240844800)
I0403 10:52:31.003470  5436 net.cpp:137] Memory required for data: 3898675500
I0403 10:52:31.003476  5436 layer_factory.hpp:77] Creating layer pool1
I0403 10:52:31.003490  5436 net.cpp:84] Creating Layer pool1
I0403 10:52:31.003497  5436 net.cpp:406] pool1 <- conv1_2
I0403 10:52:31.003509  5436 net.cpp:380] pool1 -> pool1
I0403 10:52:31.003623  5436 net.cpp:122] Setting up pool1
I0403 10:52:31.003639  5436 net.cpp:129] Top shape: 75 64 112 112 (60211200)
I0403 10:52:31.003648  5436 net.cpp:137] Memory required for data: 4139520300
I0403 10:52:31.003654  5436 layer_factory.hpp:77] Creating layer conv2_1
I0403 10:52:31.003670  5436 net.cpp:84] Creating Layer conv2_1
I0403 10:52:31.003679  5436 net.cpp:406] conv2_1 <- pool1
I0403 10:52:31.003691  5436 net.cpp:380] conv2_1 -> conv2_1
I0403 10:52:31.007984  5436 net.cpp:122] Setting up conv2_1
I0403 10:52:31.008019  5436 net.cpp:129] Top shape: 75 128 112 112 (120422400)
I0403 10:52:31.008026  5436 net.cpp:137] Memory required for data: 4621209900
I0403 10:52:31.008047  5436 layer_factory.hpp:77] Creating layer relu2_1
I0403 10:52:31.008105  5436 net.cpp:84] Creating Layer relu2_1
I0403 10:52:31.008116  5436 net.cpp:406] relu2_1 <- conv2_1
I0403 10:52:31.008128  5436 net.cpp:367] relu2_1 -> conv2_1 (in-place)
I0403 10:52:31.008533  5436 net.cpp:122] Setting up relu2_1
I0403 10:52:31.008553  5436 net.cpp:129] Top shape: 75 128 112 112 (120422400)
I0403 10:52:31.008563  5436 net.cpp:137] Memory required for data: 5102899500
I0403 10:52:31.008569  5436 layer_factory.hpp:77] Creating layer conv2_2
I0403 10:52:31.008590  5436 net.cpp:84] Creating Layer conv2_2
I0403 10:52:31.008599  5436 net.cpp:406] conv2_2 <- conv2_1
I0403 10:52:31.008612  5436 net.cpp:380] conv2_2 -> conv2_2
I0403 10:52:31.011319  5436 net.cpp:122] Setting up conv2_2
I0403 10:52:31.011351  5436 net.cpp:129] Top shape: 75 128 112 112 (120422400)
I0403 10:52:31.011361  5436 net.cpp:137] Memory required for data: 5584589100
I0403 10:52:31.011375  5436 layer_factory.hpp:77] Creating layer relu2_2
I0403 10:52:31.011390  5436 net.cpp:84] Creating Layer relu2_2
I0403 10:52:31.011399  5436 net.cpp:406] relu2_2 <- conv2_2
I0403 10:52:31.011410  5436 net.cpp:367] relu2_2 -> conv2_2 (in-place)
I0403 10:52:31.011802  5436 net.cpp:122] Setting up relu2_2
I0403 10:52:31.011823  5436 net.cpp:129] Top shape: 75 128 112 112 (120422400)
I0403 10:52:31.011831  5436 net.cpp:137] Memory required for data: 6066278700
I0403 10:52:31.011837  5436 layer_factory.hpp:77] Creating layer pool2
I0403 10:52:31.011852  5436 net.cpp:84] Creating Layer pool2
I0403 10:52:31.011859  5436 net.cpp:406] pool2 <- conv2_2
I0403 10:52:31.011869  5436 net.cpp:380] pool2 -> pool2
I0403 10:52:31.011968  5436 net.cpp:122] Setting up pool2
I0403 10:52:31.011982  5436 net.cpp:129] Top shape: 75 128 56 56 (30105600)
I0403 10:52:31.011988  5436 net.cpp:137] Memory required for data: 6186701100
I0403 10:52:31.011993  5436 layer_factory.hpp:77] Creating layer conv3_1
I0403 10:52:31.012013  5436 net.cpp:84] Creating Layer conv3_1
I0403 10:52:31.012022  5436 net.cpp:406] conv3_1 <- pool2
I0403 10:52:31.012034  5436 net.cpp:380] conv3_1 -> conv3_1
I0403 10:52:31.016826  5436 net.cpp:122] Setting up conv3_1
I0403 10:52:31.016861  5436 net.cpp:129] Top shape: 75 256 56 56 (60211200)
I0403 10:52:31.016871  5436 net.cpp:137] Memory required for data: 6427545900
I0403 10:52:31.016893  5436 layer_factory.hpp:77] Creating layer relu3_1
I0403 10:52:31.016909  5436 net.cpp:84] Creating Layer relu3_1
I0403 10:52:31.016918  5436 net.cpp:406] relu3_1 <- conv3_1
I0403 10:52:31.016928  5436 net.cpp:367] relu3_1 -> conv3_1 (in-place)
I0403 10:52:31.017644  5436 net.cpp:122] Setting up relu3_1
I0403 10:52:31.017674  5436 net.cpp:129] Top shape: 75 256 56 56 (60211200)
I0403 10:52:31.017683  5436 net.cpp:137] Memory required for data: 6668390700
I0403 10:52:31.017689  5436 layer_factory.hpp:77] Creating layer conv3_2
I0403 10:52:31.017707  5436 net.cpp:84] Creating Layer conv3_2
I0403 10:52:31.017716  5436 net.cpp:406] conv3_2 <- conv3_1
I0403 10:52:31.017731  5436 net.cpp:380] conv3_2 -> conv3_2
I0403 10:52:31.022367  5436 net.cpp:122] Setting up conv3_2
I0403 10:52:31.022399  5436 net.cpp:129] Top shape: 75 256 56 56 (60211200)
I0403 10:52:31.022409  5436 net.cpp:137] Memory required for data: 6909235500
I0403 10:52:31.022423  5436 layer_factory.hpp:77] Creating layer relu3_2
I0403 10:52:31.022439  5436 net.cpp:84] Creating Layer relu3_2
I0403 10:52:31.022449  5436 net.cpp:406] relu3_2 <- conv3_2
I0403 10:52:31.022459  5436 net.cpp:367] relu3_2 -> conv3_2 (in-place)
I0403 10:52:31.023159  5436 net.cpp:122] Setting up relu3_2
I0403 10:52:31.023186  5436 net.cpp:129] Top shape: 75 256 56 56 (60211200)
I0403 10:52:31.023195  5436 net.cpp:137] Memory required for data: 7150080300
I0403 10:52:31.023201  5436 layer_factory.hpp:77] Creating layer conv3_3
I0403 10:52:31.023219  5436 net.cpp:84] Creating Layer conv3_3
I0403 10:52:31.023228  5436 net.cpp:406] conv3_3 <- conv3_2
I0403 10:52:31.023243  5436 net.cpp:380] conv3_3 -> conv3_3
I0403 10:52:31.027983  5436 net.cpp:122] Setting up conv3_3
I0403 10:52:31.028017  5436 net.cpp:129] Top shape: 75 256 56 56 (60211200)
I0403 10:52:31.028053  5436 net.cpp:137] Memory required for data: 7390925100
I0403 10:52:31.028067  5436 layer_factory.hpp:77] Creating layer relu3_3
I0403 10:52:31.028086  5436 net.cpp:84] Creating Layer relu3_3
I0403 10:52:31.028095  5436 net.cpp:406] relu3_3 <- conv3_3
I0403 10:52:31.028105  5436 net.cpp:367] relu3_3 -> conv3_3 (in-place)
I0403 10:52:31.028461  5436 net.cpp:122] Setting up relu3_3
I0403 10:52:31.028481  5436 net.cpp:129] Top shape: 75 256 56 56 (60211200)
I0403 10:52:31.028488  5436 net.cpp:137] Memory required for data: 7631769900
I0403 10:52:31.028493  5436 layer_factory.hpp:77] Creating layer pool3
I0403 10:52:31.028504  5436 net.cpp:84] Creating Layer pool3
I0403 10:52:31.028512  5436 net.cpp:406] pool3 <- conv3_3
I0403 10:52:31.028522  5436 net.cpp:380] pool3 -> pool3
I0403 10:52:31.028616  5436 net.cpp:122] Setting up pool3
I0403 10:52:31.028630  5436 net.cpp:129] Top shape: 75 256 28 28 (15052800)
I0403 10:52:31.028638  5436 net.cpp:137] Memory required for data: 7691981100
I0403 10:52:31.028645  5436 layer_factory.hpp:77] Creating layer conv4_1_local_channel
I0403 10:52:31.028666  5436 net.cpp:84] Creating Layer conv4_1_local_channel
I0403 10:52:31.028674  5436 net.cpp:406] conv4_1_local_channel <- pool3
I0403 10:52:31.028686  5436 net.cpp:380] conv4_1_local_channel -> conv4_1
I0403 10:52:31.129665  5436 net.cpp:122] Setting up conv4_1_local_channel
I0403 10:52:31.129734  5436 net.cpp:129] Top shape: 75 512 28 28 (30105600)
I0403 10:52:31.129745  5436 net.cpp:137] Memory required for data: 7812403500
I0403 10:52:31.129770  5436 layer_factory.hpp:77] Creating layer relu4_1
I0403 10:52:31.129830  5436 net.cpp:84] Creating Layer relu4_1
I0403 10:52:31.129842  5436 net.cpp:406] relu4_1 <- conv4_1
I0403 10:52:31.129856  5436 net.cpp:367] relu4_1 -> conv4_1 (in-place)
I0403 10:52:31.130300  5436 net.cpp:122] Setting up relu4_1
I0403 10:52:31.130321  5436 net.cpp:129] Top shape: 75 512 28 28 (30105600)
I0403 10:52:31.130331  5436 net.cpp:137] Memory required for data: 7932825900
I0403 10:52:31.130336  5436 layer_factory.hpp:77] Creating layer conv4_2_local_channel
I0403 10:52:31.130373  5436 net.cpp:84] Creating Layer conv4_2_local_channel
I0403 10:52:31.130383  5436 net.cpp:406] conv4_2_local_channel <- conv4_1
I0403 10:52:31.130398  5436 net.cpp:380] conv4_2_local_channel -> conv4_2
I0403 10:52:31.337788  5436 net.cpp:122] Setting up conv4_2_local_channel
I0403 10:52:31.337822  5436 net.cpp:129] Top shape: 75 512 28 28 (30105600)
I0403 10:52:31.337831  5436 net.cpp:137] Memory required for data: 8053248300
I0403 10:52:31.337855  5436 layer_factory.hpp:77] Creating layer relu4_2
I0403 10:52:31.337880  5436 net.cpp:84] Creating Layer relu4_2
I0403 10:52:31.337888  5436 net.cpp:406] relu4_2 <- conv4_2
I0403 10:52:31.337898  5436 net.cpp:367] relu4_2 -> conv4_2 (in-place)
I0403 10:52:31.338290  5436 net.cpp:122] Setting up relu4_2
I0403 10:52:31.338310  5436 net.cpp:129] Top shape: 75 512 28 28 (30105600)
I0403 10:52:31.338315  5436 net.cpp:137] Memory required for data: 8173670700
I0403 10:52:31.338320  5436 layer_factory.hpp:77] Creating layer conv4_3_pointwise
I0403 10:52:31.338341  5436 net.cpp:84] Creating Layer conv4_3_pointwise
I0403 10:52:31.338349  5436 net.cpp:406] conv4_3_pointwise <- conv4_2
I0403 10:52:31.338362  5436 net.cpp:380] conv4_3_pointwise -> conv4_3
I0403 10:52:31.344493  5436 net.cpp:122] Setting up conv4_3_pointwise
I0403 10:52:31.344523  5436 net.cpp:129] Top shape: 75 512 28 28 (30105600)
I0403 10:52:31.344532  5436 net.cpp:137] Memory required for data: 8294093100
I0403 10:52:31.344542  5436 layer_factory.hpp:77] Creating layer relu4_3
I0403 10:52:31.344559  5436 net.cpp:84] Creating Layer relu4_3
I0403 10:52:31.344568  5436 net.cpp:406] relu4_3 <- conv4_3
I0403 10:52:31.344578  5436 net.cpp:367] relu4_3 -> conv4_3 (in-place)
I0403 10:52:31.344970  5436 net.cpp:122] Setting up relu4_3
I0403 10:52:31.344990  5436 net.cpp:129] Top shape: 75 512 28 28 (30105600)
I0403 10:52:31.344995  5436 net.cpp:137] Memory required for data: 8414515500
I0403 10:52:31.345034  5436 layer_factory.hpp:77] Creating layer pool4
I0403 10:52:31.345059  5436 net.cpp:84] Creating Layer pool4
I0403 10:52:31.345068  5436 net.cpp:406] pool4 <- conv4_3
I0403 10:52:31.345077  5436 net.cpp:380] pool4 -> pool4
I0403 10:52:31.345202  5436 net.cpp:122] Setting up pool4
I0403 10:52:31.345216  5436 net.cpp:129] Top shape: 75 512 14 14 (7526400)
I0403 10:52:31.345221  5436 net.cpp:137] Memory required for data: 8444621100
I0403 10:52:31.345226  5436 layer_factory.hpp:77] Creating layer conv5_1_local_channel
I0403 10:52:31.345244  5436 net.cpp:84] Creating Layer conv5_1_local_channel
I0403 10:52:31.345252  5436 net.cpp:406] conv5_1_local_channel <- pool4
I0403 10:52:31.345264  5436 net.cpp:380] conv5_1_local_channel -> conv5_1
I0403 10:52:31.537822  5436 net.cpp:122] Setting up conv5_1_local_channel
I0403 10:52:31.537894  5436 net.cpp:129] Top shape: 75 1024 14 14 (15052800)
I0403 10:52:31.537904  5436 net.cpp:137] Memory required for data: 8504832300
I0403 10:52:31.537940  5436 layer_factory.hpp:77] Creating layer relu5_1
I0403 10:52:31.537967  5436 net.cpp:84] Creating Layer relu5_1
I0403 10:52:31.537979  5436 net.cpp:406] relu5_1 <- conv5_1
I0403 10:52:31.537992  5436 net.cpp:367] relu5_1 -> conv5_1 (in-place)
I0403 10:52:31.538532  5436 net.cpp:122] Setting up relu5_1
I0403 10:52:31.538554  5436 net.cpp:129] Top shape: 75 1024 14 14 (15052800)
I0403 10:52:31.538561  5436 net.cpp:137] Memory required for data: 8565043500
I0403 10:52:31.538568  5436 layer_factory.hpp:77] Creating layer conv5_2_local_channel
I0403 10:52:31.538604  5436 net.cpp:84] Creating Layer conv5_2_local_channel
I0403 10:52:31.538614  5436 net.cpp:406] conv5_2_local_channel <- conv5_1
I0403 10:52:31.538631  5436 net.cpp:380] conv5_2_local_channel -> conv5_2
I0403 10:52:32.002164  5436 net.cpp:122] Setting up conv5_2_local_channel
I0403 10:52:32.002226  5436 net.cpp:129] Top shape: 75 1024 14 14 (15052800)
I0403 10:52:32.002233  5436 net.cpp:137] Memory required for data: 8625254700
I0403 10:52:32.002254  5436 layer_factory.hpp:77] Creating layer relu5_2
I0403 10:52:32.002270  5436 net.cpp:84] Creating Layer relu5_2
I0403 10:52:32.002279  5436 net.cpp:406] relu5_2 <- conv5_2
I0403 10:52:32.002290  5436 net.cpp:367] relu5_2 -> conv5_2 (in-place)
I0403 10:52:32.003352  5436 net.cpp:122] Setting up relu5_2
I0403 10:52:32.003382  5436 net.cpp:129] Top shape: 75 1024 14 14 (15052800)
I0403 10:52:32.003389  5436 net.cpp:137] Memory required for data: 8685465900
I0403 10:52:32.003396  5436 layer_factory.hpp:77] Creating layer conv5_3_pointwise
I0403 10:52:32.003420  5436 net.cpp:84] Creating Layer conv5_3_pointwise
I0403 10:52:32.003428  5436 net.cpp:406] conv5_3_pointwise <- conv5_2
I0403 10:52:32.003443  5436 net.cpp:380] conv5_3_pointwise -> conv5_3
I0403 10:52:32.016142  5436 net.cpp:122] Setting up conv5_3_pointwise
I0403 10:52:32.016176  5436 net.cpp:129] Top shape: 75 512 14 14 (7526400)
I0403 10:52:32.016185  5436 net.cpp:137] Memory required for data: 8715571500
I0403 10:52:32.016199  5436 layer_factory.hpp:77] Creating layer relu5_3
I0403 10:52:32.016218  5436 net.cpp:84] Creating Layer relu5_3
I0403 10:52:32.016227  5436 net.cpp:406] relu5_3 <- conv5_3
I0403 10:52:32.016237  5436 net.cpp:367] relu5_3 -> conv5_3 (in-place)
I0403 10:52:32.017237  5436 net.cpp:122] Setting up relu5_3
I0403 10:52:32.017269  5436 net.cpp:129] Top shape: 75 512 14 14 (7526400)
I0403 10:52:32.017276  5436 net.cpp:137] Memory required for data: 8745677100
I0403 10:52:32.017282  5436 layer_factory.hpp:77] Creating layer pool5
I0403 10:52:32.017297  5436 net.cpp:84] Creating Layer pool5
I0403 10:52:32.017304  5436 net.cpp:406] pool5 <- conv5_3
I0403 10:52:32.017323  5436 net.cpp:380] pool5 -> pool5
I0403 10:52:32.017592  5436 net.cpp:122] Setting up pool5
I0403 10:52:32.017613  5436 net.cpp:129] Top shape: 75 512 7 7 (1881600)
I0403 10:52:32.017619  5436 net.cpp:137] Memory required for data: 8753203500
I0403 10:52:32.017626  5436 layer_factory.hpp:77] Creating layer fc6
I0403 10:52:32.017705  5436 net.cpp:84] Creating Layer fc6
I0403 10:52:32.017719  5436 net.cpp:406] fc6 <- pool5
I0403 10:52:32.017776  5436 net.cpp:380] fc6 -> fc6
I0403 10:52:32.347787  5436 net.cpp:122] Setting up fc6
I0403 10:52:32.347844  5436 net.cpp:129] Top shape: 75 4096 (307200)
I0403 10:52:32.347848  5436 net.cpp:137] Memory required for data: 8754432300
I0403 10:52:32.347862  5436 layer_factory.hpp:77] Creating layer relu6
I0403 10:52:32.347877  5436 net.cpp:84] Creating Layer relu6
I0403 10:52:32.347882  5436 net.cpp:406] relu6 <- fc6
I0403 10:52:32.347890  5436 net.cpp:367] relu6 -> fc6 (in-place)
I0403 10:52:32.348246  5436 net.cpp:122] Setting up relu6
I0403 10:52:32.348259  5436 net.cpp:129] Top shape: 75 4096 (307200)
I0403 10:52:32.348263  5436 net.cpp:137] Memory required for data: 8755661100
I0403 10:52:32.348265  5436 layer_factory.hpp:77] Creating layer drop6
I0403 10:52:32.348273  5436 net.cpp:84] Creating Layer drop6
I0403 10:52:32.348278  5436 net.cpp:406] drop6 <- fc6
I0403 10:52:32.348284  5436 net.cpp:367] drop6 -> fc6 (in-place)
I0403 10:52:32.348404  5436 net.cpp:122] Setting up drop6
I0403 10:52:32.348417  5436 net.cpp:129] Top shape: 75 4096 (307200)
I0403 10:52:32.348420  5436 net.cpp:137] Memory required for data: 8756889900
I0403 10:52:32.348424  5436 layer_factory.hpp:77] Creating layer fc7
I0403 10:52:32.348433  5436 net.cpp:84] Creating Layer fc7
I0403 10:52:32.348436  5436 net.cpp:406] fc7 <- fc6
I0403 10:52:32.348443  5436 net.cpp:380] fc7 -> fc7
I0403 10:52:32.398175  5436 net.cpp:122] Setting up fc7
I0403 10:52:32.398231  5436 net.cpp:129] Top shape: 75 4096 (307200)
I0403 10:52:32.398236  5436 net.cpp:137] Memory required for data: 8758118700
I0403 10:52:32.398249  5436 layer_factory.hpp:77] Creating layer relu7
I0403 10:52:32.398263  5436 net.cpp:84] Creating Layer relu7
I0403 10:52:32.398268  5436 net.cpp:406] relu7 <- fc7
I0403 10:52:32.398279  5436 net.cpp:367] relu7 -> fc7 (in-place)
I0403 10:52:32.398648  5436 net.cpp:122] Setting up relu7
I0403 10:52:32.398666  5436 net.cpp:129] Top shape: 75 4096 (307200)
I0403 10:52:32.398669  5436 net.cpp:137] Memory required for data: 8759347500
I0403 10:52:32.398672  5436 layer_factory.hpp:77] Creating layer drop7
I0403 10:52:32.398680  5436 net.cpp:84] Creating Layer drop7
I0403 10:52:32.398684  5436 net.cpp:406] drop7 <- fc7
I0403 10:52:32.398690  5436 net.cpp:367] drop7 -> fc7 (in-place)
I0403 10:52:32.398779  5436 net.cpp:122] Setting up drop7
I0403 10:52:32.398789  5436 net.cpp:129] Top shape: 75 4096 (307200)
I0403 10:52:32.398792  5436 net.cpp:137] Memory required for data: 8760576300
I0403 10:52:32.398795  5436 layer_factory.hpp:77] Creating layer fc8
I0403 10:52:32.398807  5436 net.cpp:84] Creating Layer fc8
I0403 10:52:32.398810  5436 net.cpp:406] fc8 <- fc7
I0403 10:52:32.398816  5436 net.cpp:380] fc8 -> fc8
I0403 10:52:32.431434  5436 net.cpp:122] Setting up fc8
I0403 10:52:32.431453  5436 net.cpp:129] Top shape: 75 1000 (75000)
I0403 10:52:32.431457  5436 net.cpp:137] Memory required for data: 8760876300
I0403 10:52:32.431464  5436 layer_factory.hpp:77] Creating layer loss
I0403 10:52:32.431486  5436 net.cpp:84] Creating Layer loss
I0403 10:52:32.431490  5436 net.cpp:406] loss <- fc8
I0403 10:52:32.431495  5436 net.cpp:406] loss <- label
I0403 10:52:32.431506  5436 net.cpp:380] loss -> loss/loss
I0403 10:52:32.431535  5436 layer_factory.hpp:77] Creating layer loss
…
I0403 10:52:33.452215  5436 net.cpp:294] The NetState phase (1) differed from the phase (0) specified by a rule in layer data
I0403 10:52:33.452471  5436 net.cpp:51] Initializing net from parameters: 
name: "VGG_ILSVRC_16_layers"
state {
  phase: TEST
}
layer {
  name: "data"
  type: "Data"
  top: "data"
  top: "label"
  include {
    phase: TEST
  }
  transform_param {
    mirror: false
    crop_size: 224
    mean_file: "/home/data/ImageNet/data/ilsvrc12/imagenet_mean.binaryproto"
  }
  data_param {
    source: "examples/imagenet/ilsvrc12_val_lmdb"
    batch_size: 10
    backend: LMDB
  }
}
layer {
  name: "conv1_1"
  type: "Convolution"
  bottom: "data"
  top: "conv1_1"
  param {
    lr_mult: 0
  }
  param {
    lr_mult: 0
  }
  convolution_param {
    num_output: 64
    pad: 1
    kernel_size: 3
  }
}
layer {
  name: "relu1_1"
  type: "ReLU"
  bottom: "conv1_1"
  top: "conv1_1"
}
layer {
  name: "conv1_2"
  type: "Convolution"
  bottom: "conv1_1"
  top: "conv1_2"
  param {
    lr_mult: 0
  }
  param {
    lr_mult: 0
  }
  convolution_param {
    num_output: 64
    pad: 1
    kernel_size: 3
  }
}
layer {
  name: "relu1_2"
  type: "ReLU"
  bottom: "conv1_2"
  top: "conv1_2"
}
layer {
  name: "pool1"
  type: "Pooling"
  bottom: "conv1_2"
  top: "pool1"
  pooling_param {
    pool: MAX
    kernel_size: 2
    stride: 2
  }
}
layer {
  name: "conv2_1"
  type: "Convolution"
  bottom: "pool1"
  top: "conv2_1"
  param {
    lr_mult: 0
  }
  param {
    lr_mult: 0
  }
  convolution_param {
    num_output: 128
    pad: 1
    kernel_size: 3
  }
}
layer {
  name: "relu2_1"
  type: "ReLU"
  bottom: "conv2_1"
  top: "conv2_1"
}
layer {
  name: "conv2_2"
  type: "Convolution"
  bottom: "conv2_1"
  top: "conv2_2"
  param {
    lr_mult: 0
  }
  param {
    lr_mult: 0
  }
  convolution_param {
    num_output: 128
    pad: 1
    kernel_size: 3
  }
}
layer {
  name: "relu2_2"
  type: "ReLU"
  bottom: "conv2_2"
  top: "conv2_2"
}
layer {
  name: "pool2"
  type: "Pooling"
  bottom: "conv2_2"
  top: "pool2"
  pooling_param {
    pool: MAX
    kernel_size: 2
    stride: 2
  }
}
layer {
  name: "conv3_1"
  type: "Convolution"
  bottom: "pool2"
  top: "conv3_1"
  param {
    lr_mult: 1
  }
  param {
    lr_mult: 2
  }
  convolution_param {
    num_output: 256
    pad: 1
    kernel_size: 3
  }
}
layer {
  name: "relu3_1"
  type: "ReLU"
  bottom: "conv3_1"
  top: "conv3_1"
}
layer {
  name: "conv3_2"
  type: "Convolution"
  bottom: "conv3_1"
  top: "conv3_2"
  param {
    lr_mult: 1
  }
  param {
    lr_mult: 2
  }
  convolution_param {
    num_output: 256
    pad: 1
    kernel_size: 3
  }
}
layer {
  name: "relu3_2"
  type: "ReLU"
  bottom: "conv3_2"
  top: "conv3_2"
}
layer {
  name: "conv3_3"
  type: "Convolution"
  bottom: "conv3_2"
  top: "conv3_3"
  param {
    lr_mult: 1
  }
  param {
    lr_mult: 2
  }
  convolution_param {
    num_output: 256
    pad: 1
    kernel_size: 3
  }
}
layer {
  name: "relu3_3"
  type: "ReLU"
  bottom: "conv3_3"
  top: "conv3_3"
}
layer {
  name: "pool3"
  type: "Pooling"
  bottom: "conv3_3"
  top: "pool3"
  pooling_param {
    pool: MAX
    kernel_size: 2
    stride: 2
  }
}
layer {
  name: "conv4_1_local_channel"
  type: "Convolution"
  bottom: "pool3"
  top: "conv4_1"
  param {
    lr_mult: 1
  }
  param {
    lr_mult: 2
  }
  convolution_param {
    pad: 1
    kernel_size: 3
    weight_filler {
      type: "xavier"
    }
    bias_filler {
      type: "constant"
      value: 0
    }
    force_local_channel: true
    kernel_c: 8
    stride_c: 4
    num_output_per_group: 8
  }
}
layer {
  name: "relu4_1"
  type: "ReLU"
  bottom: "conv4_1"
  top: "conv4_1"
}
layer {
  name: "conv4_2_local_channel"
  type: "Convolution"
  bottom: "conv4_1"
  top: "conv4_2"
  param {
    lr_mult: 1
  }
  param {
    lr_mult: 2
  }
  convolution_param {
    pad: 1
    kernel_size: 3
    weight_filler {
      type: "xavier"
    }
    bias_filler {
      type: "constant"
      value: 0
    }
    force_local_channel: true
    kernel_c: 8
    stride_c: 4
    num_output_per_group: 4
  }
}
layer {
  name: "relu4_2"
  type: "ReLU"
  bottom: "conv4_2"
  top: "conv4_2"
}
layer {
  name: "conv4_3_pointwise"
  type: "Convolution"
  bottom: "conv4_2"
  top: "conv4_3"
  param {
    lr_mult: 1
  }
  param {
    lr_mult: 2
  }
  convolution_param {
    num_output: 512
    pad: 0
    kernel_size: 1
    stride: 1
    weight_filler {
      type: "xavier"
    }
    bias_filler {
      type: "constant"
      value: 0
    }
  }
}
layer {
  name: "relu4_3"
  type: "ReLU"
  bottom: "conv4_3"
  top: "conv4_3"
}
layer {
  name: "pool4"
  type: "Pooling"
  bottom: "conv4_3"
  top: "pool4"
  pooling_param {
    pool: MAX
    kernel_size: 2
    stride: 2
  }
}
layer {
  name: "conv5_1_local_channel"
  type: "Convolution"
  bottom: "pool4"
  top: "conv5_1"
  param {
    lr_mult: 1
  }
  param {
    lr_mult: 2
  }
  convolution_param {
    pad: 1
    kernel_size: 3
    weight_filler {
      type: "xavier"
    }
    bias_filler {
      type: "constant"
      value: 0
    }
    force_local_channel: true
    kernel_c: 8
    stride_c: 4
    num_output_per_group: 8
  }
}
layer {
  name: "relu5_1"
  type: "ReLU"
  bottom: "conv5_1"
  top: "conv5_1"
}
layer {
  name: "conv5_2_local_channel"
  type: "Convolution"
  bottom: "conv5_1"
  top: "conv5_2"
  param {
    lr_mult: 1
  }
  param {
    lr_mult: 2
  }
  convolution_param {
    pad: 1
    kernel_size: 3
    weight_filler {
      type: "xavier"
    }
    bias_filler {
      type: "constant"
      value: 0
    }
    force_local_channel: true
    kernel_c: 8
    stride_c: 4
    num_output_per_group: 4
  }
}
layer {
  name: "relu5_2"
  type: "ReLU"
  bottom: "conv5_2"
  top: "conv5_2"
}
layer {
  name: "conv5_3_pointwise"
  type: "Convolution"
  bottom: "conv5_2"
  top: "conv5_3"
  param {
    lr_mult: 1
  }
  param {
    lr_mult: 2
  }
  convolution_param {
    num_output: 512
    pad: 0
    kernel_size: 1
    stride: 1
    weight_filler {
      type: "xavier"
    }
    bias_filler {
      type: "constant"
      value: 0
    }
  }
}
layer {
  name: "relu5_3"
  type: "ReLU"
  bottom: "conv5_3"
  top: "conv5_3"
}
layer {
  name: "pool5"
  type: "Pooling"
  bottom: "conv5_3"
  top: "pool5"
  pooling_param {
    pool: MAX
    kernel_size: 2
    stride: 2
  }
}
layer {
  name: "fc6"
  type: "InnerProduct"
  bottom: "pool5"
  top: "fc6"
  param {
    lr_mult: 1
  }
  param {
    lr_mult: 2
  }
  inner_product_param {
    num_output: 4096
  }
}
layer {
  name: "relu6"
  type: "ReLU"
  bottom: "fc6"
  top: "fc6"
}
layer {
  name: "drop6"
  type: "Dropout"
  bottom: "fc6"
  top: "fc6"
  dropout_param {
    dropout_ratio: 0.5
  }
}
layer {
  name: "fc7"
  type: "InnerProduct"
  bottom: "fc6"
  top: "fc7"
  param {
    lr_mult: 1
  }
  param {
    lr_mult: 2
  }
  inner_product_param {
    num_output: 4096
  }
}
layer {
  name: "relu7"
  type: "ReLU"
  bottom: "fc7"
  top: "fc7"
}
layer {
  name: "drop7"
  type: "Dropout"
  bottom: "fc7"
  top: "fc7"
  dropout_param {
    dropout_ratio: 0.5
  }
}
layer {
  name: "fc8"
  type: "InnerProduct"
  bottom: "fc7"
  top: "fc8"
  param {
    lr_mult: 1
    decay_mult: 1
  }
  param {
    lr_mult: 2
    decay_mult: 0
  }
  inner_product_param {
    num_output: 1000
    weight_filler {
      type: "xavier"
    }
    bias_filler {
      type: "constant"
      value: 0
    }
  }
}
layer {
  name: "loss"
  type: "SoftmaxWithLoss"
  bottom: "fc8"
  bottom: "label"
  top: "loss/loss"
}
layer {
  name: "accuracy/top1"
  type: "Accuracy"
  bottom: "fc8"
  bottom: "label"
  top: "accuracy@1"
  include {
    phase: TEST
  }
  accuracy_param {
    top_k: 1
  }
}
layer {
  name: "accuracy/top5"
  type: "Accuracy"
  bottom: "fc8"
  bottom: "label"
  top: "accuracy@5"
  include {
    phase: TEST
  }
  accuracy_param {
    top_k: 5
  }
}
I0403 10:52:33.452620  5436 layer_factory.hpp:77] Creating layer data
I0403 10:52:33.452708  5436 db_lmdb.cpp:35] Opened lmdb examples/imagenet/ilsvrc12_val_lmdb
I0403 10:52:33.452731  5436 net.cpp:84] Creating Layer data
I0403 10:52:33.452739  5436 net.cpp:380] data -> data
I0403 10:52:33.452749  5436 net.cpp:380] data -> label
I0403 10:52:33.452757  5436 data_transformer.cpp:25] Loading mean file from: /home/data/ImageNet/data/ilsvrc12/imagenet_mean.binaryproto
I0403 10:52:33.454531  5436 data_layer.cpp:45] output data size: 10,3,224,224
I0403 10:52:33.470127  5436 net.cpp:122] Setting up data
I0403 10:52:33.470165  5436 net.cpp:129] Top shape: 10 3 224 224 (1505280)
I0403 10:52:33.470170  5436 net.cpp:129] Top shape: 10 (10)
I0403 10:52:33.470171  5436 net.cpp:137] Memory required for data: 6021160
I0403 10:52:33.470177  5436 layer_factory.hpp:77] Creating layer label_data_1_split
I0403 10:52:33.470190  5436 net.cpp:84] Creating Layer label_data_1_split
I0403 10:52:33.470193  5436 net.cpp:406] label_data_1_split <- label
I0403 10:52:33.470199  5436 net.cpp:380] label_data_1_split -> label_data_1_split_0
I0403 10:52:33.470222  5436 net.cpp:380] label_data_1_split -> label_data_1_split_1
I0403 10:52:33.470228  5436 net.cpp:380] label_data_1_split -> label_data_1_split_2
I0403 10:52:33.470393  5436 net.cpp:122] Setting up label_data_1_split
I0403 10:52:33.470402  5436 net.cpp:129] Top shape: 10 (10)
I0403 10:52:33.470405  5436 net.cpp:129] Top shape: 10 (10)
I0403 10:52:33.470408  5436 net.cpp:129] Top shape: 10 (10)
I0403 10:52:33.470412  5436 net.cpp:137] Memory required for data: 6021280
I0403 10:52:33.470414  5436 layer_factory.hpp:77] Creating layer conv1_1
I0403 10:52:33.470425  5436 net.cpp:84] Creating Layer conv1_1
I0403 10:52:33.470430  5436 net.cpp:406] conv1_1 <- data
I0403 10:52:33.470435  5436 net.cpp:380] conv1_1 -> conv1_1
I0403 10:52:33.474329  5436 net.cpp:122] Setting up conv1_1
I0403 10:52:33.474362  5436 net.cpp:129] Top shape: 10 64 224 224 (32112640)
I0403 10:52:33.474383  5436 net.cpp:137] Memory required for data: 134471840
I0403 10:52:33.474407  5436 layer_factory.hpp:77] Creating layer relu1_1
I0403 10:52:33.474421  5436 net.cpp:84] Creating Layer relu1_1
I0403 10:52:33.474432  5436 net.cpp:406] relu1_1 <- conv1_1
I0403 10:52:33.474443  5436 net.cpp:367] relu1_1 -> conv1_1 (in-place)
I0403 10:52:33.476266  5436 net.cpp:122] Setting up relu1_1
I0403 10:52:33.476301  5436 net.cpp:129] Top shape: 10 64 224 224 (32112640)
I0403 10:52:33.476308  5436 net.cpp:137] Memory required for data: 262922400
I0403 10:52:33.476316  5436 layer_factory.hpp:77] Creating layer conv1_2
I0403 10:52:33.476337  5436 net.cpp:84] Creating Layer conv1_2
I0403 10:52:33.476346  5436 net.cpp:406] conv1_2 <- conv1_1
I0403 10:52:33.476359  5436 net.cpp:380] conv1_2 -> conv1_2
I0403 10:52:33.480099  5436 net.cpp:122] Setting up conv1_2
I0403 10:52:33.480129  5436 net.cpp:129] Top shape: 10 64 224 224 (32112640)
I0403 10:52:33.480137  5436 net.cpp:137] Memory required for data: 391372960
I0403 10:52:33.480157  5436 layer_factory.hpp:77] Creating layer relu1_2
I0403 10:52:33.480171  5436 net.cpp:84] Creating Layer relu1_2
I0403 10:52:33.480178  5436 net.cpp:406] relu1_2 <- conv1_2
I0403 10:52:33.480190  5436 net.cpp:367] relu1_2 -> conv1_2 (in-place)
I0403 10:52:33.480654  5436 net.cpp:122] Setting up relu1_2
I0403 10:52:33.480674  5436 net.cpp:129] Top shape: 10 64 224 224 (32112640)
I0403 10:52:33.480680  5436 net.cpp:137] Memory required for data: 519823520
I0403 10:52:33.480686  5436 layer_factory.hpp:77] Creating layer pool1
I0403 10:52:33.480700  5436 net.cpp:84] Creating Layer pool1
I0403 10:52:33.480707  5436 net.cpp:406] pool1 <- conv1_2
I0403 10:52:33.480718  5436 net.cpp:380] pool1 -> pool1
I0403 10:52:33.480937  5436 net.cpp:122] Setting up pool1
I0403 10:52:33.480953  5436 net.cpp:129] Top shape: 10 64 112 112 (8028160)
I0403 10:52:33.480959  5436 net.cpp:137] Memory required for data: 551936160
I0403 10:52:33.480965  5436 layer_factory.hpp:77] Creating layer conv2_1
I0403 10:52:33.480981  5436 net.cpp:84] Creating Layer conv2_1
I0403 10:52:33.480988  5436 net.cpp:406] conv2_1 <- pool1
I0403 10:52:33.481000  5436 net.cpp:380] conv2_1 -> conv2_1
I0403 10:52:33.485081  5436 net.cpp:122] Setting up conv2_1
I0403 10:52:33.485116  5436 net.cpp:129] Top shape: 10 128 112 112 (16056320)
I0403 10:52:33.485123  5436 net.cpp:137] Memory required for data: 616161440
I0403 10:52:33.485148  5436 layer_factory.hpp:77] Creating layer relu2_1
I0403 10:52:33.485167  5436 net.cpp:84] Creating Layer relu2_1
I0403 10:52:33.485206  5436 net.cpp:406] relu2_1 <- conv2_1
I0403 10:52:33.485222  5436 net.cpp:367] relu2_1 -> conv2_1 (in-place)
I0403 10:52:33.485785  5436 net.cpp:122] Setting up relu2_1
I0403 10:52:33.485810  5436 net.cpp:129] Top shape: 10 128 112 112 (16056320)
I0403 10:52:33.485816  5436 net.cpp:137] Memory required for data: 680386720
I0403 10:52:33.485824  5436 layer_factory.hpp:77] Creating layer conv2_2
I0403 10:52:33.485841  5436 net.cpp:84] Creating Layer conv2_2
I0403 10:52:33.485849  5436 net.cpp:406] conv2_2 <- conv2_1
I0403 10:52:33.485862  5436 net.cpp:380] conv2_2 -> conv2_2
I0403 10:52:33.492970  5436 net.cpp:122] Setting up conv2_2
I0403 10:52:33.493010  5436 net.cpp:129] Top shape: 10 128 112 112 (16056320)
I0403 10:52:33.493036  5436 net.cpp:137] Memory required for data: 744612000
I0403 10:52:33.493055  5436 layer_factory.hpp:77] Creating layer relu2_2
I0403 10:52:33.493070  5436 net.cpp:84] Creating Layer relu2_2
I0403 10:52:33.493083  5436 net.cpp:406] relu2_2 <- conv2_2
I0403 10:52:33.493095  5436 net.cpp:367] relu2_2 -> conv2_2 (in-place)
I0403 10:52:33.493590  5436 net.cpp:122] Setting up relu2_2
I0403 10:52:33.493614  5436 net.cpp:129] Top shape: 10 128 112 112 (16056320)
I0403 10:52:33.493623  5436 net.cpp:137] Memory required for data: 808837280
I0403 10:52:33.493630  5436 layer_factory.hpp:77] Creating layer pool2
I0403 10:52:33.493645  5436 net.cpp:84] Creating Layer pool2
I0403 10:52:33.493654  5436 net.cpp:406] pool2 <- conv2_2
I0403 10:52:33.493666  5436 net.cpp:380] pool2 -> pool2
I0403 10:52:33.493938  5436 net.cpp:122] Setting up pool2
I0403 10:52:33.493959  5436 net.cpp:129] Top shape: 10 128 56 56 (4014080)
I0403 10:52:33.493966  5436 net.cpp:137] Memory required for data: 824893600
I0403 10:52:33.493973  5436 layer_factory.hpp:77] Creating layer conv3_1
I0403 10:52:33.493991  5436 net.cpp:84] Creating Layer conv3_1
I0403 10:52:33.494000  5436 net.cpp:406] conv3_1 <- pool2
I0403 10:52:33.494014  5436 net.cpp:380] conv3_1 -> conv3_1
I0403 10:52:33.499670  5436 net.cpp:122] Setting up conv3_1
I0403 10:52:33.499717  5436 net.cpp:129] Top shape: 10 256 56 56 (8028160)
I0403 10:52:33.499727  5436 net.cpp:137] Memory required for data: 857006240
I0403 10:52:33.499748  5436 layer_factory.hpp:77] Creating layer relu3_1
I0403 10:52:33.499763  5436 net.cpp:84] Creating Layer relu3_1
I0403 10:52:33.499771  5436 net.cpp:406] relu3_1 <- conv3_1
I0403 10:52:33.499788  5436 net.cpp:367] relu3_1 -> conv3_1 (in-place)
I0403 10:52:33.500311  5436 net.cpp:122] Setting up relu3_1
I0403 10:52:33.500336  5436 net.cpp:129] Top shape: 10 256 56 56 (8028160)
I0403 10:52:33.500344  5436 net.cpp:137] Memory required for data: 889118880
I0403 10:52:33.500351  5436 layer_factory.hpp:77] Creating layer conv3_2
I0403 10:52:33.500368  5436 net.cpp:84] Creating Layer conv3_2
I0403 10:52:33.500376  5436 net.cpp:406] conv3_2 <- conv3_1
I0403 10:52:33.500391  5436 net.cpp:380] conv3_2 -> conv3_2
I0403 10:52:33.508460  5436 net.cpp:122] Setting up conv3_2
I0403 10:52:33.508496  5436 net.cpp:129] Top shape: 10 256 56 56 (8028160)
I0403 10:52:33.508504  5436 net.cpp:137] Memory required for data: 921231520
I0403 10:52:33.508522  5436 layer_factory.hpp:77] Creating layer relu3_2
I0403 10:52:33.508538  5436 net.cpp:84] Creating Layer relu3_2
I0403 10:52:33.508551  5436 net.cpp:406] relu3_2 <- conv3_2
I0403 10:52:33.508564  5436 net.cpp:367] relu3_2 -> conv3_2 (in-place)
I0403 10:52:33.510356  5436 net.cpp:122] Setting up relu3_2
I0403 10:52:33.510390  5436 net.cpp:129] Top shape: 10 256 56 56 (8028160)
I0403 10:52:33.510397  5436 net.cpp:137] Memory required for data: 953344160
I0403 10:52:33.510406  5436 layer_factory.hpp:77] Creating layer conv3_3
I0403 10:52:33.510435  5436 net.cpp:84] Creating Layer conv3_3
I0403 10:52:33.510444  5436 net.cpp:406] conv3_3 <- conv3_2
I0403 10:52:33.510460  5436 net.cpp:380] conv3_3 -> conv3_3
I0403 10:52:33.518190  5436 net.cpp:122] Setting up conv3_3
I0403 10:52:33.518229  5436 net.cpp:129] Top shape: 10 256 56 56 (8028160)
I0403 10:52:33.518236  5436 net.cpp:137] Memory required for data: 985456800
I0403 10:52:33.518290  5436 layer_factory.hpp:77] Creating layer relu3_3
I0403 10:52:33.518309  5436 net.cpp:84] Creating Layer relu3_3
I0403 10:52:33.518319  5436 net.cpp:406] relu3_3 <- conv3_3
I0403 10:52:33.518332  5436 net.cpp:367] relu3_3 -> conv3_3 (in-place)
I0403 10:52:33.519316  5436 net.cpp:122] Setting up relu3_3
I0403 10:52:33.519346  5436 net.cpp:129] Top shape: 10 256 56 56 (8028160)
I0403 10:52:33.519353  5436 net.cpp:137] Memory required for data: 1017569440
I0403 10:52:33.519361  5436 layer_factory.hpp:77] Creating layer pool3
I0403 10:52:33.519376  5436 net.cpp:84] Creating Layer pool3
I0403 10:52:33.519383  5436 net.cpp:406] pool3 <- conv3_3
I0403 10:52:33.519397  5436 net.cpp:380] pool3 -> pool3
I0403 10:52:33.519645  5436 net.cpp:122] Setting up pool3
I0403 10:52:33.519662  5436 net.cpp:129] Top shape: 10 256 28 28 (2007040)
I0403 10:52:33.519668  5436 net.cpp:137] Memory required for data: 1025597600
I0403 10:52:33.519675  5436 layer_factory.hpp:77] Creating layer conv4_1_local_channel
I0403 10:52:33.519695  5436 net.cpp:84] Creating Layer conv4_1_local_channel
I0403 10:52:33.519703  5436 net.cpp:406] conv4_1_local_channel <- pool3
I0403 10:52:33.519716  5436 net.cpp:380] conv4_1_local_channel -> conv4_1
I0403 10:52:33.616859  5436 net.cpp:122] Setting up conv4_1_local_channel
I0403 10:52:33.616885  5436 net.cpp:129] Top shape: 10 512 28 28 (4014080)
I0403 10:52:33.616890  5436 net.cpp:137] Memory required for data: 1041653920
I0403 10:52:33.616900  5436 layer_factory.hpp:77] Creating layer relu4_1
I0403 10:52:33.616909  5436 net.cpp:84] Creating Layer relu4_1
I0403 10:52:33.616914  5436 net.cpp:406] relu4_1 <- conv4_1
I0403 10:52:33.616922  5436 net.cpp:367] relu4_1 -> conv4_1 (in-place)
I0403 10:52:33.617591  5436 net.cpp:122] Setting up relu4_1
I0403 10:52:33.617612  5436 net.cpp:129] Top shape: 10 512 28 28 (4014080)
I0403 10:52:33.617616  5436 net.cpp:137] Memory required for data: 1057710240
I0403 10:52:33.617620  5436 layer_factory.hpp:77] Creating layer conv4_2_local_channel
I0403 10:52:33.617635  5436 net.cpp:84] Creating Layer conv4_2_local_channel
I0403 10:52:33.617640  5436 net.cpp:406] conv4_2_local_channel <- conv4_1
I0403 10:52:33.617650  5436 net.cpp:380] conv4_2_local_channel -> conv4_2
I0403 10:52:33.764168  5436 net.cpp:122] Setting up conv4_2_local_channel
I0403 10:52:33.764190  5436 net.cpp:129] Top shape: 10 512 28 28 (4014080)
I0403 10:52:33.764194  5436 net.cpp:137] Memory required for data: 1073766560
I0403 10:52:33.764209  5436 layer_factory.hpp:77] Creating layer relu4_2
I0403 10:52:33.764219  5436 net.cpp:84] Creating Layer relu4_2
I0403 10:52:33.764223  5436 net.cpp:406] relu4_2 <- conv4_2
I0403 10:52:33.764230  5436 net.cpp:367] relu4_2 -> conv4_2 (in-place)
I0403 10:52:33.764508  5436 net.cpp:122] Setting up relu4_2
I0403 10:52:33.764520  5436 net.cpp:129] Top shape: 10 512 28 28 (4014080)
I0403 10:52:33.764524  5436 net.cpp:137] Memory required for data: 1089822880
I0403 10:52:33.764528  5436 layer_factory.hpp:77] Creating layer conv4_3_pointwise
I0403 10:52:33.764540  5436 net.cpp:84] Creating Layer conv4_3_pointwise
I0403 10:52:33.764544  5436 net.cpp:406] conv4_3_pointwise <- conv4_2
I0403 10:52:33.764554  5436 net.cpp:380] conv4_3_pointwise -> conv4_3
I0403 10:52:33.771286  5436 net.cpp:122] Setting up conv4_3_pointwise
I0403 10:52:33.771322  5436 net.cpp:129] Top shape: 10 512 28 28 (4014080)
I0403 10:52:33.771332  5436 net.cpp:137] Memory required for data: 1105879200
I0403 10:52:33.771347  5436 layer_factory.hpp:77] Creating layer relu4_3
I0403 10:52:33.771361  5436 net.cpp:84] Creating Layer relu4_3
I0403 10:52:33.771370  5436 net.cpp:406] relu4_3 <- conv4_3
I0403 10:52:33.771383  5436 net.cpp:367] relu4_3 -> conv4_3 (in-place)
I0403 10:52:33.771924  5436 net.cpp:122] Setting up relu4_3
I0403 10:52:33.771944  5436 net.cpp:129] Top shape: 10 512 28 28 (4014080)
I0403 10:52:33.771950  5436 net.cpp:137] Memory required for data: 1121935520
I0403 10:52:33.771957  5436 layer_factory.hpp:77] Creating layer pool4
I0403 10:52:33.772011  5436 net.cpp:84] Creating Layer pool4
I0403 10:52:33.772023  5436 net.cpp:406] pool4 <- conv4_3
I0403 10:52:33.772037  5436 net.cpp:380] pool4 -> pool4
I0403 10:52:33.772330  5436 net.cpp:122] Setting up pool4
I0403 10:52:33.772347  5436 net.cpp:129] Top shape: 10 512 14 14 (1003520)
I0403 10:52:33.772354  5436 net.cpp:137] Memory required for data: 1125949600
I0403 10:52:33.772361  5436 layer_factory.hpp:77] Creating layer conv5_1_local_channel
I0403 10:52:33.772382  5436 net.cpp:84] Creating Layer conv5_1_local_channel
I0403 10:52:33.772389  5436 net.cpp:406] conv5_1_local_channel <- pool4
I0403 10:52:33.772403  5436 net.cpp:380] conv5_1_local_channel -> conv5_1
I0403 10:52:34.037101  5436 net.cpp:122] Setting up conv5_1_local_channel
I0403 10:52:34.037147  5436 net.cpp:129] Top shape: 10 1024 14 14 (2007040)
I0403 10:52:34.037154  5436 net.cpp:137] Memory required for data: 1133977760
I0403 10:52:34.037184  5436 layer_factory.hpp:77] Creating layer relu5_1
I0403 10:52:34.037210  5436 net.cpp:84] Creating Layer relu5_1
I0403 10:52:34.037223  5436 net.cpp:406] relu5_1 <- conv5_1
I0403 10:52:34.037236  5436 net.cpp:367] relu5_1 -> conv5_1 (in-place)
I0403 10:52:34.038244  5436 net.cpp:122] Setting up relu5_1
I0403 10:52:34.038275  5436 net.cpp:129] Top shape: 10 1024 14 14 (2007040)
I0403 10:52:34.038281  5436 net.cpp:137] Memory required for data: 1142005920
I0403 10:52:34.038288  5436 layer_factory.hpp:77] Creating layer conv5_2_local_channel
I0403 10:52:34.038316  5436 net.cpp:84] Creating Layer conv5_2_local_channel
I0403 10:52:34.038324  5436 net.cpp:406] conv5_2_local_channel <- conv5_1
I0403 10:52:34.038339  5436 net.cpp:380] conv5_2_local_channel -> conv5_2
I0403 10:52:34.490969  5436 net.cpp:122] Setting up conv5_2_local_channel
I0403 10:52:34.491005  5436 net.cpp:129] Top shape: 10 1024 14 14 (2007040)
I0403 10:52:34.491011  5436 net.cpp:137] Memory required for data: 1150034080
I0403 10:52:34.491025  5436 layer_factory.hpp:77] Creating layer relu5_2
I0403 10:52:34.491039  5436 net.cpp:84] Creating Layer relu5_2
I0403 10:52:34.491046  5436 net.cpp:406] relu5_2 <- conv5_2
I0403 10:52:34.491057  5436 net.cpp:367] relu5_2 -> conv5_2 (in-place)
I0403 10:52:34.491406  5436 net.cpp:122] Setting up relu5_2
I0403 10:52:34.491426  5436 net.cpp:129] Top shape: 10 1024 14 14 (2007040)
I0403 10:52:34.491431  5436 net.cpp:137] Memory required for data: 1158062240
I0403 10:52:34.491436  5436 layer_factory.hpp:77] Creating layer conv5_3_pointwise
I0403 10:52:34.491456  5436 net.cpp:84] Creating Layer conv5_3_pointwise
I0403 10:52:34.491462  5436 net.cpp:406] conv5_3_pointwise <- conv5_2
I0403 10:52:34.491474  5436 net.cpp:380] conv5_3_pointwise -> conv5_3
I0403 10:52:34.500690  5436 net.cpp:122] Setting up conv5_3_pointwise
I0403 10:52:34.500713  5436 net.cpp:129] Top shape: 10 512 14 14 (1003520)
I0403 10:52:34.500718  5436 net.cpp:137] Memory required for data: 1162076320
I0403 10:52:34.500728  5436 layer_factory.hpp:77] Creating layer relu5_3
I0403 10:52:34.500738  5436 net.cpp:84] Creating Layer relu5_3
I0403 10:52:34.500743  5436 net.cpp:406] relu5_3 <- conv5_3
I0403 10:52:34.500756  5436 net.cpp:367] relu5_3 -> conv5_3 (in-place)
I0403 10:52:34.501523  5436 net.cpp:122] Setting up relu5_3
I0403 10:52:34.501546  5436 net.cpp:129] Top shape: 10 512 14 14 (1003520)
I0403 10:52:34.501551  5436 net.cpp:137] Memory required for data: 1166090400
I0403 10:52:34.501556  5436 layer_factory.hpp:77] Creating layer pool5
I0403 10:52:34.501600  5436 net.cpp:84] Creating Layer pool5
I0403 10:52:34.501606  5436 net.cpp:406] pool5 <- conv5_3
I0403 10:52:34.501615  5436 net.cpp:380] pool5 -> pool5
I0403 10:52:34.501911  5436 net.cpp:122] Setting up pool5
I0403 10:52:34.501927  5436 net.cpp:129] Top shape: 10 512 7 7 (250880)
I0403 10:52:34.501931  5436 net.cpp:137] Memory required for data: 1167093920
I0403 10:52:34.501936  5436 layer_factory.hpp:77] Creating layer fc6
I0403 10:52:34.501950  5436 net.cpp:84] Creating Layer fc6
I0403 10:52:34.501956  5436 net.cpp:406] fc6 <- pool5
I0403 10:52:34.501965  5436 net.cpp:380] fc6 -> fc6
I0403 10:52:34.803580  5436 net.cpp:122] Setting up fc6
I0403 10:52:34.803637  5436 net.cpp:129] Top shape: 10 4096 (40960)
I0403 10:52:34.803642  5436 net.cpp:137] Memory required for data: 1167257760
I0403 10:52:34.803658  5436 layer_factory.hpp:77] Creating layer relu6
I0403 10:52:34.803674  5436 net.cpp:84] Creating Layer relu6
I0403 10:52:34.803680  5436 net.cpp:406] relu6 <- fc6
I0403 10:52:34.803690  5436 net.cpp:367] relu6 -> fc6 (in-place)
I0403 10:52:34.804077  5436 net.cpp:122] Setting up relu6
I0403 10:52:34.804091  5436 net.cpp:129] Top shape: 10 4096 (40960)
I0403 10:52:34.804095  5436 net.cpp:137] Memory required for data: 1167421600
I0403 10:52:34.804100  5436 layer_factory.hpp:77] Creating layer drop6
I0403 10:52:34.804112  5436 net.cpp:84] Creating Layer drop6
I0403 10:52:34.804117  5436 net.cpp:406] drop6 <- fc6
I0403 10:52:34.804124  5436 net.cpp:367] drop6 -> fc6 (in-place)
I0403 10:52:34.804347  5436 net.cpp:122] Setting up drop6
I0403 10:52:34.804358  5436 net.cpp:129] Top shape: 10 4096 (40960)
I0403 10:52:34.804360  5436 net.cpp:137] Memory required for data: 1167585440
I0403 10:52:34.804364  5436 layer_factory.hpp:77] Creating layer fc7
I0403 10:52:34.804374  5436 net.cpp:84] Creating Layer fc7
I0403 10:52:34.804378  5436 net.cpp:406] fc7 <- fc6
I0403 10:52:34.804388  5436 net.cpp:380] fc7 -> fc7
I0403 10:52:34.856557  5436 net.cpp:122] Setting up fc7
I0403 10:52:34.856616  5436 net.cpp:129] Top shape: 10 4096 (40960)
I0403 10:52:34.856621  5436 net.cpp:137] Memory required for data: 1167749280
I0403 10:52:34.856637  5436 layer_factory.hpp:77] Creating layer relu7
I0403 10:52:34.856654  5436 net.cpp:84] Creating Layer relu7
I0403 10:52:34.856659  5436 net.cpp:406] relu7 <- fc7
I0403 10:52:34.856669  5436 net.cpp:367] relu7 -> fc7 (in-place)
I0403 10:52:34.857053  5436 net.cpp:122] Setting up relu7
I0403 10:52:34.857067  5436 net.cpp:129] Top shape: 10 4096 (40960)
I0403 10:52:34.857071  5436 net.cpp:137] Memory required for data: 1167913120
I0403 10:52:34.857075  5436 layer_factory.hpp:77] Creating layer drop7
I0403 10:52:34.857085  5436 net.cpp:84] Creating Layer drop7
I0403 10:52:34.857089  5436 net.cpp:406] drop7 <- fc7
I0403 10:52:34.857098  5436 net.cpp:367] drop7 -> fc7 (in-place)
I0403 10:52:34.857229  5436 net.cpp:122] Setting up drop7
I0403 10:52:34.857245  5436 net.cpp:129] Top shape: 10 4096 (40960)
I0403 10:52:34.857250  5436 net.cpp:137] Memory required for data: 1168076960
I0403 10:52:34.857256  5436 layer_factory.hpp:77] Creating layer fc8
I0403 10:52:34.857269  5436 net.cpp:84] Creating Layer fc8
I0403 10:52:34.857275  5436 net.cpp:406] fc8 <- fc7
I0403 10:52:34.857285  5436 net.cpp:380] fc8 -> fc8
I0403 10:52:34.890290  5436 net.cpp:122] Setting up fc8
I0403 10:52:34.890310  5436 net.cpp:129] Top shape: 10 1000 (10000)
I0403 10:52:34.890313  5436 net.cpp:137] Memory required for data: 1168116960
I0403 10:52:34.890324  5436 layer_factory.hpp:77] Creating layer fc8_fc8_0_split
I0403 10:52:34.890336  5436 net.cpp:84] Creating Layer fc8_fc8_0_split
I0403 10:52:34.890341  5436 net.cpp:406] fc8_fc8_0_split <- fc8
I0403 10:52:34.890350  5436 net.cpp:380] fc8_fc8_0_split -> fc8_fc8_0_split_0
I0403 10:52:34.890362  5436 net.cpp:380] fc8_fc8_0_split -> fc8_fc8_0_split_1
I0403 10:52:34.890368  5436 net.cpp:380] fc8_fc8_0_split -> fc8_fc8_0_split_2
I0403 10:52:34.890727  5436 net.cpp:122] Setting up fc8_fc8_0_split
I0403 10:52:34.890739  5436 net.cpp:129] Top shape: 10 1000 (10000)
I0403 10:52:34.890743  5436 net.cpp:129] Top shape: 10 1000 (10000)
I0403 10:52:34.890748  5436 net.cpp:129] Top shape: 10 1000 (10000)
I0403 10:52:34.890750  5436 net.cpp:137] Memory required for data: 1168236960
I0403 10:52:34.890754  5436 layer_factory.hpp:77] Creating layer loss
I0403 10:52:34.890764  5436 net.cpp:84] Creating Layer loss
I0403 10:52:34.890769  5436 net.cpp:406] loss <- fc8_fc8_0_split_0
I0403 10:52:34.890775  5436 net.cpp:406] loss <- label_data_1_split_0
I0403 10:52:34.890782  5436 net.cpp:380] loss -> loss/loss
…
