…
I0403 09:58:30.717341  5089 net.cpp:294] The NetState phase (0) differed from the phase (1) specified by a rule in layer accuracy/top5
I0403 09:58:30.717607  5089 net.cpp:51] Initializing net from parameters: 
name: "VGG_ILSVRC_16_layers"
state {
  phase: TRAIN
  level: 0
  stage: ""
}
layer {
  name: "data"
  type: "Data"
  top: "data"
  top: "label"
  include {
    phase: TRAIN
  }
  transform_param {
    mirror: true
    crop_size: 224
    mean_file: "/home/data/ImageNet/data/ilsvrc12/imagenet_mean.binaryproto"
  }
  data_param {
    source: "examples/imagenet/ilsvrc12_train_lmdb"
    batch_size: 80
    backend: LMDB
  }
}
layer {
  name: "conv1_1"
  type: "Convolution"
  bottom: "data"
  top: "conv1_1"
  param {
    lr_mult: 0
  }
  param {
    lr_mult: 0
  }
  convolution_param {
    num_output: 64
    pad: 1
    kernel_size: 3
  }
}
layer {
  name: "relu1_1"
  type: "ReLU"
  bottom: "conv1_1"
  top: "conv1_1"
}
layer {
  name: "conv1_2"
  type: "Convolution"
  bottom: "conv1_1"
  top: "conv1_2"
  param {
    lr_mult: 0
  }
  param {
    lr_mult: 0
  }
  convolution_param {
    num_output: 64
    pad: 1
    kernel_size: 3
  }
}
layer {
  name: "relu1_2"
  type: "ReLU"
  bottom: "conv1_2"
  top: "conv1_2"
}
layer {
  name: "pool1"
  type: "Pooling"
  bottom: "conv1_2"
  top: "pool1"
  pooling_param {
    pool: MAX
    kernel_size: 2
    stride: 2
  }
}
layer {
  name: "conv2_1"
  type: "Convolution"
  bottom: "pool1"
  top: "conv2_1"
  param {
    lr_mult: 0
  }
  param {
    lr_mult: 0
  }
  convolution_param {
    num_output: 128
    pad: 1
    kernel_size: 3
  }
}
layer {
  name: "relu2_1"
  type: "ReLU"
  bottom: "conv2_1"
  top: "conv2_1"
}
layer {
  name: "conv2_2"
  type: "Convolution"
  bottom: "conv2_1"
  top: "conv2_2"
  param {
    lr_mult: 0
  }
  param {
    lr_mult: 0
  }
  convolution_param {
    num_output: 128
    pad: 1
    kernel_size: 3
  }
}
layer {
  name: "relu2_2"
  type: "ReLU"
  bottom: "conv2_2"
  top: "conv2_2"
}
layer {
  name: "pool2"
  type: "Pooling"
  bottom: "conv2_2"
  top: "pool2"
  pooling_param {
    pool: MAX
    kernel_size: 2
    stride: 2
  }
}
layer {
  name: "conv3_1"
  type: "Convolution"
  bottom: "pool2"
  top: "conv3_1"
  param {
    lr_mult: 1
  }
  param {
    lr_mult: 2
  }
  convolution_param {
    num_output: 256
    pad: 1
    kernel_size: 3
  }
}
layer {
  name: "relu3_1"
  type: "ReLU"
  bottom: "conv3_1"
  top: "conv3_1"
}
layer {
  name: "conv3_2"
  type: "Convolution"
  bottom: "conv3_1"
  top: "conv3_2"
  param {
    lr_mult: 1
  }
  param {
    lr_mult: 2
  }
  convolution_param {
    num_output: 256
    pad: 1
    kernel_size: 3
  }
}
layer {
  name: "relu3_2"
  type: "ReLU"
  bottom: "conv3_2"
  top: "conv3_2"
}
layer {
  name: "conv3_3"
  type: "Convolution"
  bottom: "conv3_2"
  top: "conv3_3"
  param {
    lr_mult: 1
  }
  param {
    lr_mult: 2
  }
  convolution_param {
    num_output: 256
    pad: 1
    kernel_size: 3
  }
}
layer {
  name: "relu3_3"
  type: "ReLU"
  bottom: "conv3_3"
  top: "conv3_3"
}
layer {
  name: "pool3"
  type: "Pooling"
  bottom: "conv3_3"
  top: "pool3"
  pooling_param {
    pool: MAX
    kernel_size: 2
    stride: 2
  }
}
layer {
  name: "conv4_1_local_channel"
  type: "Convolution"
  bottom: "pool3"
  top: "conv4_1"
  param {
    lr_mult: 1
  }
  param {
    lr_mult: 2
  }
  convolution_param {
    pad: 1
    kernel_size: 3
    weight_filler {
      type: "xavier"
    }
    bias_filler {
      type: "constant"
      value: 0
    }
    force_local_channel: true
    kernel_c: 8
    stride_c: 4
    num_output_per_group: 8
  }
}
layer {
  name: "relu4_1"
  type: "ReLU"
  bottom: "conv4_1"
  top: "conv4_1"
}
layer {
  name: "conv4_2_local_channel"
  type: "Convolution"
  bottom: "conv4_1"
  top: "conv4_2"
  param {
    lr_mult: 1
  }
  param {
    lr_mult: 2
  }
  convolution_param {
    pad: 1
    kernel_size: 3
    weight_filler {
      type: "xavier"
    }
    bias_filler {
      type: "constant"
      value: 0
    }
    force_local_channel: true
    kernel_c: 8
    stride_c: 4
    num_output_per_group: 4
  }
}
layer {
  name: "relu4_2"
  type: "ReLU"
  bottom: "conv4_2"
  top: "conv4_2"
}
layer {
  name: "conv4_3_pointwise"
  type: "Convolution"
  bottom: "conv4_2"
  top: "conv4_3"
  param {
    lr_mult: 1
  }
  param {
    lr_mult: 2
  }
  convolution_param {
    num_output: 512
    pad: 0
    kernel_size: 1
    stride: 1
    weight_filler {
      type: "xavier"
    }
    bias_filler {
      type: "constant"
      value: 0
    }
  }
}
layer {
  name: "relu4_3"
  type: "ReLU"
  bottom: "conv4_3"
  top: "conv4_3"
}
layer {
  name: "pool4"
  type: "Pooling"
  bottom: "conv4_3"
  top: "pool4"
  pooling_param {
    pool: MAX
    kernel_size: 2
    stride: 2
  }
}
layer {
  name: "conv5_1_local_channel"
  type: "Convolution"
  bottom: "pool4"
  top: "conv5_1"
  param {
    lr_mult: 1
  }
  param {
    lr_mult: 2
  }
  convolution_param {
    pad: 1
    kernel_size: 3
    weight_filler {
      type: "xavier"
    }
    bias_filler {
      type: "constant"
      value: 0
    }
    force_local_channel: true
    kernel_c: 8
    stride_c: 4
    num_output_per_group: 4
  }
}
layer {
  name: "relu5_1"
  type: "ReLU"
  bottom: "conv5_1"
  top: "conv5_1"
}
layer {
  name: "conv5_2_local_channel"
  type: "Convolution"
  bottom: "conv5_1"
  top: "conv5_2"
  param {
    lr_mult: 1
  }
  param {
    lr_mult: 2
  }
  convolution_param {
    pad: 1
    kernel_size: 3
    weight_filler {
      type: "xavier"
    }
    bias_filler {
      type: "constant"
      value: 0
    }
    force_local_channel: true
    kernel_c: 8
    stride_c: 4
    num_output_per_group: 4
  }
}
layer {
  name: "relu5_2"
  type: "ReLU"
  bottom: "conv5_2"
  top: "conv5_2"
}
layer {
  name: "conv5_3_pointwise"
  type: "Convolution"
  bottom: "conv5_2"
  top: "conv5_3"
  param {
    lr_mult: 1
  }
  param {
    lr_mult: 2
  }
  convolution_param {
    num_output: 512
    pad: 0
    kernel_size: 1
    stride: 1
    weight_filler {
      type: "xavier"
    }
    bias_filler {
      type: "constant"
      value: 0
    }
  }
}
layer {
  name: "relu5_3"
  type: "ReLU"
  bottom: "conv5_3"
  top: "conv5_3"
}
layer {
  name: "pool5"
  type: "Pooling"
  bottom: "conv5_3"
  top: "pool5"
  pooling_param {
    pool: MAX
    kernel_size: 2
    stride: 2
  }
}
layer {
  name: "fc6"
  type: "InnerProduct"
  bottom: "pool5"
  top: "fc6"
  param {
    lr_mult: 1
  }
  param {
    lr_mult: 2
  }
  inner_product_param {
    num_output: 4096
  }
}
layer {
  name: "relu6"
  type: "ReLU"
  bottom: "fc6"
  top: "fc6"
}
layer {
  name: "drop6"
  type: "Dropout"
  bottom: "fc6"
  top: "fc6"
  dropout_param {
    dropout_ratio: 0.5
  }
}
layer {
  name: "fc7"
  type: "InnerProduct"
  bottom: "fc6"
  top: "fc7"
  param {
    lr_mult: 1
  }
  param {
    lr_mult: 2
  }
  inner_product_param {
    num_output: 4096
  }
}
layer {
  name: "relu7"
  type: "ReLU"
  bottom: "fc7"
  top: "fc7"
}
layer {
  name: "drop7"
  type: "Dropout"
  bottom: "fc7"
  top: "fc7"
  dropout_param {
    dropout_ratio: 0.5
  }
}
layer {
  name: "fc8"
  type: "InnerProduct"
  bottom: "fc7"
  top: "fc8"
  param {
    lr_mult: 1
    decay_mult: 1
  }
  param {
    lr_mult: 2
    decay_mult: 0
  }
  inner_product_param {
    num_output: 1000
    weight_filler {
      type: "xavier"
    }
    bias_filler {
      type: "constant"
      value: 0
    }
  }
}
layer {
  name: "loss"
  type: "SoftmaxWithLoss"
  bottom: "fc8"
  bottom: "label"
  top: "loss/loss"
}
I0403 09:58:30.717816  5089 layer_factory.hpp:77] Creating layer data
I0403 09:58:30.737814  5089 db_lmdb.cpp:35] Opened lmdb examples/imagenet/ilsvrc12_train_lmdb
I0403 09:58:30.765872  5089 net.cpp:84] Creating Layer data
I0403 09:58:30.765914  5089 net.cpp:380] data -> data
I0403 09:58:30.765961  5089 net.cpp:380] data -> label
I0403 09:58:30.765991  5089 data_transformer.cpp:25] Loading mean file from: /home/data/ImageNet/data/ilsvrc12/imagenet_mean.binaryproto
I0403 09:58:30.774837  5089 data_layer.cpp:45] output data size: 80,3,224,224
I0403 09:58:30.967520  5089 net.cpp:122] Setting up data
I0403 09:58:30.967717  5089 net.cpp:129] Top shape: 80 3 224 224 (12042240)
I0403 09:58:30.967749  5089 net.cpp:129] Top shape: 80 (80)
I0403 09:58:30.967759  5089 net.cpp:137] Memory required for data: 48169280
I0403 09:58:30.967788  5089 layer_factory.hpp:77] Creating layer conv1_1
I0403 09:58:30.967895  5089 net.cpp:84] Creating Layer conv1_1
I0403 09:58:30.967911  5089 net.cpp:406] conv1_1 <- data
I0403 09:58:30.967941  5089 net.cpp:380] conv1_1 -> conv1_1
I0403 09:58:31.335012  5089 net.cpp:122] Setting up conv1_1
I0403 09:58:31.335049  5089 net.cpp:129] Top shape: 80 64 224 224 (256901120)
I0403 09:58:31.335054  5089 net.cpp:137] Memory required for data: 1075773760
I0403 09:58:31.335090  5089 layer_factory.hpp:77] Creating layer relu1_1
I0403 09:58:31.335117  5089 net.cpp:84] Creating Layer relu1_1
I0403 09:58:31.335125  5089 net.cpp:406] relu1_1 <- conv1_1
I0403 09:58:31.335131  5089 net.cpp:367] relu1_1 -> conv1_1 (in-place)
I0403 09:58:31.335350  5089 net.cpp:122] Setting up relu1_1
I0403 09:58:31.335363  5089 net.cpp:129] Top shape: 80 64 224 224 (256901120)
I0403 09:58:31.335366  5089 net.cpp:137] Memory required for data: 2103378240
I0403 09:58:31.335371  5089 layer_factory.hpp:77] Creating layer conv1_2
I0403 09:58:31.335381  5089 net.cpp:84] Creating Layer conv1_2
I0403 09:58:31.335386  5089 net.cpp:406] conv1_2 <- conv1_1
I0403 09:58:31.335391  5089 net.cpp:380] conv1_2 -> conv1_2
I0403 09:58:31.336477  5089 net.cpp:122] Setting up conv1_2
I0403 09:58:31.336494  5089 net.cpp:129] Top shape: 80 64 224 224 (256901120)
I0403 09:58:31.336498  5089 net.cpp:137] Memory required for data: 3130982720
I0403 09:58:31.336508  5089 layer_factory.hpp:77] Creating layer relu1_2
I0403 09:58:31.336527  5089 net.cpp:84] Creating Layer relu1_2
I0403 09:58:31.336531  5089 net.cpp:406] relu1_2 <- conv1_2
I0403 09:58:31.336536  5089 net.cpp:367] relu1_2 -> conv1_2 (in-place)
I0403 09:58:31.336733  5089 net.cpp:122] Setting up relu1_2
I0403 09:58:31.336745  5089 net.cpp:129] Top shape: 80 64 224 224 (256901120)
I0403 09:58:31.336750  5089 net.cpp:137] Memory required for data: 4158587200
I0403 09:58:31.336752  5089 layer_factory.hpp:77] Creating layer pool1
I0403 09:58:31.336766  5089 net.cpp:84] Creating Layer pool1
I0403 09:58:31.336772  5089 net.cpp:406] pool1 <- conv1_2
I0403 09:58:31.336777  5089 net.cpp:380] pool1 -> pool1
I0403 09:58:31.336839  5089 net.cpp:122] Setting up pool1
I0403 09:58:31.336849  5089 net.cpp:129] Top shape: 80 64 112 112 (64225280)
I0403 09:58:31.336853  5089 net.cpp:137] Memory required for data: 4415488320
I0403 09:58:31.336858  5089 layer_factory.hpp:77] Creating layer conv2_1
I0403 09:58:31.336865  5089 net.cpp:84] Creating Layer conv2_1
I0403 09:58:31.336869  5089 net.cpp:406] conv2_1 <- pool1
I0403 09:58:31.336874  5089 net.cpp:380] conv2_1 -> conv2_1
I0403 09:58:31.339365  5089 net.cpp:122] Setting up conv2_1
I0403 09:58:31.339382  5089 net.cpp:129] Top shape: 80 128 112 112 (128450560)
I0403 09:58:31.339386  5089 net.cpp:137] Memory required for data: 4929290560
I0403 09:58:31.339396  5089 layer_factory.hpp:77] Creating layer relu2_1
I0403 09:58:31.339433  5089 net.cpp:84] Creating Layer relu2_1
I0403 09:58:31.339437  5089 net.cpp:406] relu2_1 <- conv2_1
I0403 09:58:31.339443  5089 net.cpp:367] relu2_1 -> conv2_1 (in-place)
I0403 09:58:31.339656  5089 net.cpp:122] Setting up relu2_1
I0403 09:58:31.339669  5089 net.cpp:129] Top shape: 80 128 112 112 (128450560)
I0403 09:58:31.339673  5089 net.cpp:137] Memory required for data: 5443092800
I0403 09:58:31.339675  5089 layer_factory.hpp:77] Creating layer conv2_2
I0403 09:58:31.339686  5089 net.cpp:84] Creating Layer conv2_2
I0403 09:58:31.339690  5089 net.cpp:406] conv2_2 <- conv2_1
I0403 09:58:31.339699  5089 net.cpp:380] conv2_2 -> conv2_2
I0403 09:58:31.341195  5089 net.cpp:122] Setting up conv2_2
I0403 09:58:31.341212  5089 net.cpp:129] Top shape: 80 128 112 112 (128450560)
I0403 09:58:31.341217  5089 net.cpp:137] Memory required for data: 5956895040
I0403 09:58:31.341225  5089 layer_factory.hpp:77] Creating layer relu2_2
I0403 09:58:31.341231  5089 net.cpp:84] Creating Layer relu2_2
I0403 09:58:31.341235  5089 net.cpp:406] relu2_2 <- conv2_2
I0403 09:58:31.341243  5089 net.cpp:367] relu2_2 -> conv2_2 (in-place)
I0403 09:58:31.341454  5089 net.cpp:122] Setting up relu2_2
I0403 09:58:31.341466  5089 net.cpp:129] Top shape: 80 128 112 112 (128450560)
I0403 09:58:31.341470  5089 net.cpp:137] Memory required for data: 6470697280
I0403 09:58:31.341473  5089 layer_factory.hpp:77] Creating layer pool2
I0403 09:58:31.341480  5089 net.cpp:84] Creating Layer pool2
I0403 09:58:31.341483  5089 net.cpp:406] pool2 <- conv2_2
I0403 09:58:31.341490  5089 net.cpp:380] pool2 -> pool2
I0403 09:58:31.341543  5089 net.cpp:122] Setting up pool2
I0403 09:58:31.341554  5089 net.cpp:129] Top shape: 80 128 56 56 (32112640)
I0403 09:58:31.341557  5089 net.cpp:137] Memory required for data: 6599147840
I0403 09:58:31.341560  5089 layer_factory.hpp:77] Creating layer conv3_1
I0403 09:58:31.341568  5089 net.cpp:84] Creating Layer conv3_1
I0403 09:58:31.341572  5089 net.cpp:406] conv3_1 <- pool2
I0403 09:58:31.341580  5089 net.cpp:380] conv3_1 -> conv3_1
I0403 09:58:31.344255  5089 net.cpp:122] Setting up conv3_1
I0403 09:58:31.344274  5089 net.cpp:129] Top shape: 80 256 56 56 (64225280)
I0403 09:58:31.344277  5089 net.cpp:137] Memory required for data: 6856048960
I0403 09:58:31.344287  5089 layer_factory.hpp:77] Creating layer relu3_1
I0403 09:58:31.344296  5089 net.cpp:84] Creating Layer relu3_1
I0403 09:58:31.344300  5089 net.cpp:406] relu3_1 <- conv3_1
I0403 09:58:31.344305  5089 net.cpp:367] relu3_1 -> conv3_1 (in-place)
I0403 09:58:31.344732  5089 net.cpp:122] Setting up relu3_1
I0403 09:58:31.344748  5089 net.cpp:129] Top shape: 80 256 56 56 (64225280)
I0403 09:58:31.344751  5089 net.cpp:137] Memory required for data: 7112950080
I0403 09:58:31.344755  5089 layer_factory.hpp:77] Creating layer conv3_2
I0403 09:58:31.344768  5089 net.cpp:84] Creating Layer conv3_2
I0403 09:58:31.344770  5089 net.cpp:406] conv3_2 <- conv3_1
I0403 09:58:31.344779  5089 net.cpp:380] conv3_2 -> conv3_2
I0403 09:58:31.347573  5089 net.cpp:122] Setting up conv3_2
I0403 09:58:31.347591  5089 net.cpp:129] Top shape: 80 256 56 56 (64225280)
I0403 09:58:31.347595  5089 net.cpp:137] Memory required for data: 7369851200
I0403 09:58:31.347602  5089 layer_factory.hpp:77] Creating layer relu3_2
I0403 09:58:31.347609  5089 net.cpp:84] Creating Layer relu3_2
I0403 09:58:31.347612  5089 net.cpp:406] relu3_2 <- conv3_2
I0403 09:58:31.347620  5089 net.cpp:367] relu3_2 -> conv3_2 (in-place)
I0403 09:58:31.348037  5089 net.cpp:122] Setting up relu3_2
I0403 09:58:31.348052  5089 net.cpp:129] Top shape: 80 256 56 56 (64225280)
I0403 09:58:31.348055  5089 net.cpp:137] Memory required for data: 7626752320
I0403 09:58:31.348058  5089 layer_factory.hpp:77] Creating layer conv3_3
I0403 09:58:31.348069  5089 net.cpp:84] Creating Layer conv3_3
I0403 09:58:31.348073  5089 net.cpp:406] conv3_3 <- conv3_2
I0403 09:58:31.348079  5089 net.cpp:380] conv3_3 -> conv3_3
I0403 09:58:31.351052  5089 net.cpp:122] Setting up conv3_3
I0403 09:58:31.351069  5089 net.cpp:129] Top shape: 80 256 56 56 (64225280)
I0403 09:58:31.351089  5089 net.cpp:137] Memory required for data: 7883653440
I0403 09:58:31.351099  5089 layer_factory.hpp:77] Creating layer relu3_3
I0403 09:58:31.351111  5089 net.cpp:84] Creating Layer relu3_3
I0403 09:58:31.351114  5089 net.cpp:406] relu3_3 <- conv3_3
I0403 09:58:31.351120  5089 net.cpp:367] relu3_3 -> conv3_3 (in-place)
I0403 09:58:31.351348  5089 net.cpp:122] Setting up relu3_3
I0403 09:58:31.351361  5089 net.cpp:129] Top shape: 80 256 56 56 (64225280)
I0403 09:58:31.351364  5089 net.cpp:137] Memory required for data: 8140554560
I0403 09:58:31.351369  5089 layer_factory.hpp:77] Creating layer pool3
I0403 09:58:31.351377  5089 net.cpp:84] Creating Layer pool3
I0403 09:58:31.351379  5089 net.cpp:406] pool3 <- conv3_3
I0403 09:58:31.351387  5089 net.cpp:380] pool3 -> pool3
I0403 09:58:31.351442  5089 net.cpp:122] Setting up pool3
I0403 09:58:31.351451  5089 net.cpp:129] Top shape: 80 256 28 28 (16056320)
I0403 09:58:31.351454  5089 net.cpp:137] Memory required for data: 8204779840
I0403 09:58:31.351457  5089 layer_factory.hpp:77] Creating layer conv4_1_local_channel
I0403 09:58:31.351472  5089 net.cpp:84] Creating Layer conv4_1_local_channel
I0403 09:58:31.351475  5089 net.cpp:406] conv4_1_local_channel <- pool3
I0403 09:58:31.351482  5089 net.cpp:380] conv4_1_local_channel -> conv4_1
I0403 09:58:31.408308  5089 net.cpp:122] Setting up conv4_1_local_channel
I0403 09:58:31.408331  5089 net.cpp:129] Top shape: 80 512 28 28 (32112640)
I0403 09:58:31.408337  5089 net.cpp:137] Memory required for data: 8333230400
I0403 09:58:31.408346  5089 layer_factory.hpp:77] Creating layer relu4_1
I0403 09:58:31.408354  5089 net.cpp:84] Creating Layer relu4_1
I0403 09:58:31.408360  5089 net.cpp:406] relu4_1 <- conv4_1
I0403 09:58:31.408365  5089 net.cpp:367] relu4_1 -> conv4_1 (in-place)
I0403 09:58:31.408601  5089 net.cpp:122] Setting up relu4_1
I0403 09:58:31.408613  5089 net.cpp:129] Top shape: 80 512 28 28 (32112640)
I0403 09:58:31.408617  5089 net.cpp:137] Memory required for data: 8461680960
I0403 09:58:31.408619  5089 layer_factory.hpp:77] Creating layer conv4_2_local_channel
I0403 09:58:31.408634  5089 net.cpp:84] Creating Layer conv4_2_local_channel
I0403 09:58:31.408640  5089 net.cpp:406] conv4_2_local_channel <- conv4_1
I0403 09:58:31.408649  5089 net.cpp:380] conv4_2_local_channel -> conv4_2
I0403 09:58:31.599663  5089 net.cpp:122] Setting up conv4_2_local_channel
I0403 09:58:31.599705  5089 net.cpp:129] Top shape: 80 512 28 28 (32112640)
I0403 09:58:31.599710  5089 net.cpp:137] Memory required for data: 8590131520
I0403 09:58:31.599736  5089 layer_factory.hpp:77] Creating layer relu4_2
I0403 09:58:31.599750  5089 net.cpp:84] Creating Layer relu4_2
I0403 09:58:31.599756  5089 net.cpp:406] relu4_2 <- conv4_2
I0403 09:58:31.599763  5089 net.cpp:367] relu4_2 -> conv4_2 (in-place)
I0403 09:58:31.600057  5089 net.cpp:122] Setting up relu4_2
I0403 09:58:31.600072  5089 net.cpp:129] Top shape: 80 512 28 28 (32112640)
I0403 09:58:31.600075  5089 net.cpp:137] Memory required for data: 8718582080
I0403 09:58:31.600080  5089 layer_factory.hpp:77] Creating layer conv4_3_pointwise
I0403 09:58:31.600098  5089 net.cpp:84] Creating Layer conv4_3_pointwise
I0403 09:58:31.600102  5089 net.cpp:406] conv4_3_pointwise <- conv4_2
I0403 09:58:31.600111  5089 net.cpp:380] conv4_3_pointwise -> conv4_3
I0403 09:58:31.604756  5089 net.cpp:122] Setting up conv4_3_pointwise
I0403 09:58:31.604779  5089 net.cpp:129] Top shape: 80 512 28 28 (32112640)
I0403 09:58:31.604784  5089 net.cpp:137] Memory required for data: 8847032640
I0403 09:58:31.604790  5089 layer_factory.hpp:77] Creating layer relu4_3
I0403 09:58:31.604800  5089 net.cpp:84] Creating Layer relu4_3
I0403 09:58:31.604806  5089 net.cpp:406] relu4_3 <- conv4_3
I0403 09:58:31.604811  5089 net.cpp:367] relu4_3 -> conv4_3 (in-place)
I0403 09:58:31.605088  5089 net.cpp:122] Setting up relu4_3
I0403 09:58:31.605103  5089 net.cpp:129] Top shape: 80 512 28 28 (32112640)
I0403 09:58:31.605106  5089 net.cpp:137] Memory required for data: 8975483200
I0403 09:58:31.605140  5089 layer_factory.hpp:77] Creating layer pool4
I0403 09:58:31.605152  5089 net.cpp:84] Creating Layer pool4
I0403 09:58:31.605156  5089 net.cpp:406] pool4 <- conv4_3
I0403 09:58:31.605162  5089 net.cpp:380] pool4 -> pool4
I0403 09:58:31.605247  5089 net.cpp:122] Setting up pool4
I0403 09:58:31.605258  5089 net.cpp:129] Top shape: 80 512 14 14 (8028160)
I0403 09:58:31.605262  5089 net.cpp:137] Memory required for data: 9007595840
I0403 09:58:31.605264  5089 layer_factory.hpp:77] Creating layer conv5_1_local_channel
I0403 09:58:31.605278  5089 net.cpp:84] Creating Layer conv5_1_local_channel
I0403 09:58:31.605283  5089 net.cpp:406] conv5_1_local_channel <- pool4
I0403 09:58:31.605296  5089 net.cpp:380] conv5_1_local_channel -> conv5_1
I0403 09:58:31.757346  5089 net.cpp:122] Setting up conv5_1_local_channel
I0403 09:58:31.757385  5089 net.cpp:129] Top shape: 80 512 14 14 (8028160)
I0403 09:58:31.757390  5089 net.cpp:137] Memory required for data: 9039708480
I0403 09:58:31.757401  5089 layer_factory.hpp:77] Creating layer relu5_1
I0403 09:58:31.757412  5089 net.cpp:84] Creating Layer relu5_1
I0403 09:58:31.757417  5089 net.cpp:406] relu5_1 <- conv5_1
I0403 09:58:31.757426  5089 net.cpp:367] relu5_1 -> conv5_1 (in-place)
I0403 09:58:31.757709  5089 net.cpp:122] Setting up relu5_1
I0403 09:58:31.757725  5089 net.cpp:129] Top shape: 80 512 14 14 (8028160)
I0403 09:58:31.757728  5089 net.cpp:137] Memory required for data: 9071821120
I0403 09:58:31.757733  5089 layer_factory.hpp:77] Creating layer conv5_2_local_channel
I0403 09:58:31.757748  5089 net.cpp:84] Creating Layer conv5_2_local_channel
I0403 09:58:31.757753  5089 net.cpp:406] conv5_2_local_channel <- conv5_1
I0403 09:58:31.757760  5089 net.cpp:380] conv5_2_local_channel -> conv5_2
I0403 09:58:31.901162  5089 net.cpp:122] Setting up conv5_2_local_channel
I0403 09:58:31.901201  5089 net.cpp:129] Top shape: 80 512 14 14 (8028160)
I0403 09:58:31.901206  5089 net.cpp:137] Memory required for data: 9103933760
I0403 09:58:31.901219  5089 layer_factory.hpp:77] Creating layer relu5_2
I0403 09:58:31.901232  5089 net.cpp:84] Creating Layer relu5_2
I0403 09:58:31.901235  5089 net.cpp:406] relu5_2 <- conv5_2
I0403 09:58:31.901242  5089 net.cpp:367] relu5_2 -> conv5_2 (in-place)
I0403 09:58:31.901495  5089 net.cpp:122] Setting up relu5_2
I0403 09:58:31.901510  5089 net.cpp:129] Top shape: 80 512 14 14 (8028160)
I0403 09:58:31.901513  5089 net.cpp:137] Memory required for data: 9136046400
I0403 09:58:31.901516  5089 layer_factory.hpp:77] Creating layer conv5_3_pointwise
I0403 09:58:31.901535  5089 net.cpp:84] Creating Layer conv5_3_pointwise
I0403 09:58:31.901538  5089 net.cpp:406] conv5_3_pointwise <- conv5_2
I0403 09:58:31.901546  5089 net.cpp:380] conv5_3_pointwise -> conv5_3
I0403 09:58:31.905244  5089 net.cpp:122] Setting up conv5_3_pointwise
I0403 09:58:31.905263  5089 net.cpp:129] Top shape: 80 512 14 14 (8028160)
I0403 09:58:31.905267  5089 net.cpp:137] Memory required for data: 9168159040
I0403 09:58:31.905278  5089 layer_factory.hpp:77] Creating layer relu5_3
I0403 09:58:31.905287  5089 net.cpp:84] Creating Layer relu5_3
I0403 09:58:31.905292  5089 net.cpp:406] relu5_3 <- conv5_3
I0403 09:58:31.905297  5089 net.cpp:367] relu5_3 -> conv5_3 (in-place)
I0403 09:58:31.905824  5089 net.cpp:122] Setting up relu5_3
I0403 09:58:31.905841  5089 net.cpp:129] Top shape: 80 512 14 14 (8028160)
I0403 09:58:31.905845  5089 net.cpp:137] Memory required for data: 9200271680
I0403 09:58:31.905848  5089 layer_factory.hpp:77] Creating layer pool5
I0403 09:58:31.905858  5089 net.cpp:84] Creating Layer pool5
I0403 09:58:31.905860  5089 net.cpp:406] pool5 <- conv5_3
I0403 09:58:31.905870  5089 net.cpp:380] pool5 -> pool5
I0403 09:58:31.905990  5089 net.cpp:122] Setting up pool5
I0403 09:58:31.906003  5089 net.cpp:129] Top shape: 80 512 7 7 (2007040)
I0403 09:58:31.906008  5089 net.cpp:137] Memory required for data: 9208299840
I0403 09:58:31.906010  5089 layer_factory.hpp:77] Creating layer fc6
I0403 09:58:31.906050  5089 net.cpp:84] Creating Layer fc6
I0403 09:58:31.906059  5089 net.cpp:406] fc6 <- pool5
I0403 09:58:31.906091  5089 net.cpp:380] fc6 -> fc6
I0403 09:58:32.265626  5089 net.cpp:122] Setting up fc6
I0403 09:58:32.265677  5089 net.cpp:129] Top shape: 80 4096 (327680)
I0403 09:58:32.265681  5089 net.cpp:137] Memory required for data: 9209610560
I0403 09:58:32.265697  5089 layer_factory.hpp:77] Creating layer relu6
I0403 09:58:32.265710  5089 net.cpp:84] Creating Layer relu6
I0403 09:58:32.265715  5089 net.cpp:406] relu6 <- fc6
I0403 09:58:32.265727  5089 net.cpp:367] relu6 -> fc6 (in-place)
I0403 09:58:32.266072  5089 net.cpp:122] Setting up relu6
I0403 09:58:32.266083  5089 net.cpp:129] Top shape: 80 4096 (327680)
I0403 09:58:32.266086  5089 net.cpp:137] Memory required for data: 9210921280
I0403 09:58:32.266090  5089 layer_factory.hpp:77] Creating layer drop6
I0403 09:58:32.266104  5089 net.cpp:84] Creating Layer drop6
I0403 09:58:32.266108  5089 net.cpp:406] drop6 <- fc6
I0403 09:58:32.266116  5089 net.cpp:367] drop6 -> fc6 (in-place)
I0403 09:58:32.266196  5089 net.cpp:122] Setting up drop6
I0403 09:58:32.266206  5089 net.cpp:129] Top shape: 80 4096 (327680)
I0403 09:58:32.266211  5089 net.cpp:137] Memory required for data: 9212232000
I0403 09:58:32.266213  5089 layer_factory.hpp:77] Creating layer fc7
I0403 09:58:32.266229  5089 net.cpp:84] Creating Layer fc7
I0403 09:58:32.266233  5089 net.cpp:406] fc7 <- fc6
I0403 09:58:32.266238  5089 net.cpp:380] fc7 -> fc7
I0403 09:58:32.316989  5089 net.cpp:122] Setting up fc7
I0403 09:58:32.317042  5089 net.cpp:129] Top shape: 80 4096 (327680)
I0403 09:58:32.317046  5089 net.cpp:137] Memory required for data: 9213542720
I0403 09:58:32.317060  5089 layer_factory.hpp:77] Creating layer relu7
I0403 09:58:32.317075  5089 net.cpp:84] Creating Layer relu7
I0403 09:58:32.317080  5089 net.cpp:406] relu7 <- fc7
I0403 09:58:32.317086  5089 net.cpp:367] relu7 -> fc7 (in-place)
I0403 09:58:32.317443  5089 net.cpp:122] Setting up relu7
I0403 09:58:32.317456  5089 net.cpp:129] Top shape: 80 4096 (327680)
I0403 09:58:32.317461  5089 net.cpp:137] Memory required for data: 9214853440
I0403 09:58:32.317463  5089 layer_factory.hpp:77] Creating layer drop7
I0403 09:58:32.317476  5089 net.cpp:84] Creating Layer drop7
I0403 09:58:32.317481  5089 net.cpp:406] drop7 <- fc7
I0403 09:58:32.317487  5089 net.cpp:367] drop7 -> fc7 (in-place)
I0403 09:58:32.317565  5089 net.cpp:122] Setting up drop7
I0403 09:58:32.317575  5089 net.cpp:129] Top shape: 80 4096 (327680)
I0403 09:58:32.317579  5089 net.cpp:137] Memory required for data: 9216164160
I0403 09:58:32.317581  5089 layer_factory.hpp:77] Creating layer fc8
I0403 09:58:32.317591  5089 net.cpp:84] Creating Layer fc8
I0403 09:58:32.317595  5089 net.cpp:406] fc8 <- fc7
I0403 09:58:32.317603  5089 net.cpp:380] fc8 -> fc8
I0403 09:58:32.350137  5089 net.cpp:122] Setting up fc8
I0403 09:58:32.350155  5089 net.cpp:129] Top shape: 80 1000 (80000)
I0403 09:58:32.350159  5089 net.cpp:137] Memory required for data: 9216484160
I0403 09:58:32.350167  5089 layer_factory.hpp:77] Creating layer loss
I0403 09:58:32.350178  5089 net.cpp:84] Creating Layer loss
I0403 09:58:32.350181  5089 net.cpp:406] loss <- fc8
I0403 09:58:32.350186  5089 net.cpp:406] loss <- label
I0403 09:58:32.350194  5089 net.cpp:380] loss -> loss/loss
I0403 09:58:32.350214  5089 layer_factory.hpp:77] Creating layer loss
…
I0403 09:58:44.446446  5089 net.cpp:294] The NetState phase (1) differed from the phase (0) specified by a rule in layer data
I0403 09:58:44.446723  5089 net.cpp:51] Initializing net from parameters: 
name: "VGG_ILSVRC_16_layers"
state {
  phase: TEST
}
layer {
  name: "data"
  type: "Data"
  top: "data"
  top: "label"
  include {
    phase: TEST
  }
  transform_param {
    mirror: false
    crop_size: 224
    mean_file: "/home/data/ImageNet/data/ilsvrc12/imagenet_mean.binaryproto"
  }
  data_param {
    source: "examples/imagenet/ilsvrc12_val_lmdb"
    batch_size: 10
    backend: LMDB
  }
}
layer {
  name: "conv1_1"
  type: "Convolution"
  bottom: "data"
  top: "conv1_1"
  param {
    lr_mult: 0
  }
  param {
    lr_mult: 0
  }
  convolution_param {
    num_output: 64
    pad: 1
    kernel_size: 3
  }
}
layer {
  name: "relu1_1"
  type: "ReLU"
  bottom: "conv1_1"
  top: "conv1_1"
}
layer {
  name: "conv1_2"
  type: "Convolution"
  bottom: "conv1_1"
  top: "conv1_2"
  param {
    lr_mult: 0
  }
  param {
    lr_mult: 0
  }
  convolution_param {
    num_output: 64
    pad: 1
    kernel_size: 3
  }
}
layer {
  name: "relu1_2"
  type: "ReLU"
  bottom: "conv1_2"
  top: "conv1_2"
}
layer {
  name: "pool1"
  type: "Pooling"
  bottom: "conv1_2"
  top: "pool1"
  pooling_param {
    pool: MAX
    kernel_size: 2
    stride: 2
  }
}
layer {
  name: "conv2_1"
  type: "Convolution"
  bottom: "pool1"
  top: "conv2_1"
  param {
    lr_mult: 0
  }
  param {
    lr_mult: 0
  }
  convolution_param {
    num_output: 128
    pad: 1
    kernel_size: 3
  }
}
layer {
  name: "relu2_1"
  type: "ReLU"
  bottom: "conv2_1"
  top: "conv2_1"
}
layer {
  name: "conv2_2"
  type: "Convolution"
  bottom: "conv2_1"
  top: "conv2_2"
  param {
    lr_mult: 0
  }
  param {
    lr_mult: 0
  }
  convolution_param {
    num_output: 128
    pad: 1
    kernel_size: 3
  }
}
layer {
  name: "relu2_2"
  type: "ReLU"
  bottom: "conv2_2"
  top: "conv2_2"
}
layer {
  name: "pool2"
  type: "Pooling"
  bottom: "conv2_2"
  top: "pool2"
  pooling_param {
    pool: MAX
    kernel_size: 2
    stride: 2
  }
}
layer {
  name: "conv3_1"
  type: "Convolution"
  bottom: "pool2"
  top: "conv3_1"
  param {
    lr_mult: 1
  }
  param {
    lr_mult: 2
  }
  convolution_param {
    num_output: 256
    pad: 1
    kernel_size: 3
  }
}
layer {
  name: "relu3_1"
  type: "ReLU"
  bottom: "conv3_1"
  top: "conv3_1"
}
layer {
  name: "conv3_2"
  type: "Convolution"
  bottom: "conv3_1"
  top: "conv3_2"
  param {
    lr_mult: 1
  }
  param {
    lr_mult: 2
  }
  convolution_param {
    num_output: 256
    pad: 1
    kernel_size: 3
  }
}
layer {
  name: "relu3_2"
  type: "ReLU"
  bottom: "conv3_2"
  top: "conv3_2"
}
layer {
  name: "conv3_3"
  type: "Convolution"
  bottom: "conv3_2"
  top: "conv3_3"
  param {
    lr_mult: 1
  }
  param {
    lr_mult: 2
  }
  convolution_param {
    num_output: 256
    pad: 1
    kernel_size: 3
  }
}
layer {
  name: "relu3_3"
  type: "ReLU"
  bottom: "conv3_3"
  top: "conv3_3"
}
layer {
  name: "pool3"
  type: "Pooling"
  bottom: "conv3_3"
  top: "pool3"
  pooling_param {
    pool: MAX
    kernel_size: 2
    stride: 2
  }
}
layer {
  name: "conv4_1_local_channel"
  type: "Convolution"
  bottom: "pool3"
  top: "conv4_1"
  param {
    lr_mult: 1
  }
  param {
    lr_mult: 2
  }
  convolution_param {
    pad: 1
    kernel_size: 3
    weight_filler {
      type: "xavier"
    }
    bias_filler {
      type: "constant"
      value: 0
    }
    force_local_channel: true
    kernel_c: 8
    stride_c: 4
    num_output_per_group: 8
  }
}
layer {
  name: "relu4_1"
  type: "ReLU"
  bottom: "conv4_1"
  top: "conv4_1"
}
layer {
  name: "conv4_2_local_channel"
  type: "Convolution"
  bottom: "conv4_1"
  top: "conv4_2"
  param {
    lr_mult: 1
  }
  param {
    lr_mult: 2
  }
  convolution_param {
    pad: 1
    kernel_size: 3
    weight_filler {
      type: "xavier"
    }
    bias_filler {
      type: "constant"
      value: 0
    }
    force_local_channel: true
    kernel_c: 8
    stride_c: 4
    num_output_per_group: 4
  }
}
layer {
  name: "relu4_2"
  type: "ReLU"
  bottom: "conv4_2"
  top: "conv4_2"
}
layer {
  name: "conv4_3_pointwise"
  type: "Convolution"
  bottom: "conv4_2"
  top: "conv4_3"
  param {
    lr_mult: 1
  }
  param {
    lr_mult: 2
  }
  convolution_param {
    num_output: 512
    pad: 0
    kernel_size: 1
    stride: 1
    weight_filler {
      type: "xavier"
    }
    bias_filler {
      type: "constant"
      value: 0
    }
  }
}
layer {
  name: "relu4_3"
  type: "ReLU"
  bottom: "conv4_3"
  top: "conv4_3"
}
layer {
  name: "pool4"
  type: "Pooling"
  bottom: "conv4_3"
  top: "pool4"
  pooling_param {
    pool: MAX
    kernel_size: 2
    stride: 2
  }
}
layer {
  name: "conv5_1_local_channel"
  type: "Convolution"
  bottom: "pool4"
  top: "conv5_1"
  param {
    lr_mult: 1
  }
  param {
    lr_mult: 2
  }
  convolution_param {
    pad: 1
    kernel_size: 3
    weight_filler {
      type: "xavier"
    }
    bias_filler {
      type: "constant"
      value: 0
    }
    force_local_channel: true
    kernel_c: 8
    stride_c: 4
    num_output_per_group: 4
  }
}
layer {
  name: "relu5_1"
  type: "ReLU"
  bottom: "conv5_1"
  top: "conv5_1"
}
layer {
  name: "conv5_2_local_channel"
  type: "Convolution"
  bottom: "conv5_1"
  top: "conv5_2"
  param {
    lr_mult: 1
  }
  param {
    lr_mult: 2
  }
  convolution_param {
    pad: 1
    kernel_size: 3
    weight_filler {
      type: "xavier"
    }
    bias_filler {
      type: "constant"
      value: 0
    }
    force_local_channel: true
    kernel_c: 8
    stride_c: 4
    num_output_per_group: 4
  }
}
layer {
  name: "relu5_2"
  type: "ReLU"
  bottom: "conv5_2"
  top: "conv5_2"
}
layer {
  name: "conv5_3_pointwise"
  type: "Convolution"
  bottom: "conv5_2"
  top: "conv5_3"
  param {
    lr_mult: 1
  }
  param {
    lr_mult: 2
  }
  convolution_param {
    num_output: 512
    pad: 0
    kernel_size: 1
    stride: 1
    weight_filler {
      type: "xavier"
    }
    bias_filler {
      type: "constant"
      value: 0
    }
  }
}
layer {
  name: "relu5_3"
  type: "ReLU"
  bottom: "conv5_3"
  top: "conv5_3"
}
layer {
  name: "pool5"
  type: "Pooling"
  bottom: "conv5_3"
  top: "pool5"
  pooling_param {
    pool: MAX
    kernel_size: 2
    stride: 2
  }
}
layer {
  name: "fc6"
  type: "InnerProduct"
  bottom: "pool5"
  top: "fc6"
  param {
    lr_mult: 1
  }
  param {
    lr_mult: 2
  }
  inner_product_param {
    num_output: 4096
  }
}
layer {
  name: "relu6"
  type: "ReLU"
  bottom: "fc6"
  top: "fc6"
}
layer {
  name: "drop6"
  type: "Dropout"
  bottom: "fc6"
  top: "fc6"
  dropout_param {
    dropout_ratio: 0.5
  }
}
layer {
  name: "fc7"
  type: "InnerProduct"
  bottom: "fc6"
  top: "fc7"
  param {
    lr_mult: 1
  }
  param {
    lr_mult: 2
  }
  inner_product_param {
    num_output: 4096
  }
}
layer {
  name: "relu7"
  type: "ReLU"
  bottom: "fc7"
  top: "fc7"
}
layer {
  name: "drop7"
  type: "Dropout"
  bottom: "fc7"
  top: "fc7"
  dropout_param {
    dropout_ratio: 0.5
  }
}
layer {
  name: "fc8"
  type: "InnerProduct"
  bottom: "fc7"
  top: "fc8"
  param {
    lr_mult: 1
    decay_mult: 1
  }
  param {
    lr_mult: 2
    decay_mult: 0
  }
  inner_product_param {
    num_output: 1000
    weight_filler {
      type: "xavier"
    }
    bias_filler {
      type: "constant"
      value: 0
    }
  }
}
layer {
  name: "loss"
  type: "SoftmaxWithLoss"
  bottom: "fc8"
  bottom: "label"
  top: "loss/loss"
}
layer {
  name: "accuracy/top1"
  type: "Accuracy"
  bottom: "fc8"
  bottom: "label"
  top: "accuracy@1"
  include {
    phase: TEST
  }
  accuracy_param {
    top_k: 1
  }
}
layer {
  name: "accuracy/top5"
  type: "Accuracy"
  bottom: "fc8"
  bottom: "label"
  top: "accuracy@5"
  include {
    phase: TEST
  }
  accuracy_param {
    top_k: 5
  }
}
I0403 09:58:44.446892  5089 layer_factory.hpp:77] Creating layer data
I0403 09:58:44.446986  5089 db_lmdb.cpp:35] Opened lmdb examples/imagenet/ilsvrc12_val_lmdb
I0403 09:58:44.447015  5089 net.cpp:84] Creating Layer data
I0403 09:58:44.447022  5089 net.cpp:380] data -> data
I0403 09:58:44.447034  5089 net.cpp:380] data -> label
I0403 09:58:44.447044  5089 data_transformer.cpp:25] Loading mean file from: /home/data/ImageNet/data/ilsvrc12/imagenet_mean.binaryproto
I0403 09:58:44.455813  5089 data_layer.cpp:45] output data size: 10,3,224,224
I0403 09:58:44.474355  5089 net.cpp:122] Setting up data
I0403 09:58:44.474405  5089 net.cpp:129] Top shape: 10 3 224 224 (1505280)
I0403 09:58:44.474416  5089 net.cpp:129] Top shape: 10 (10)
I0403 09:58:44.474424  5089 net.cpp:137] Memory required for data: 6021160
I0403 09:58:44.474438  5089 layer_factory.hpp:77] Creating layer label_data_1_split
I0403 09:58:44.474467  5089 net.cpp:84] Creating Layer label_data_1_split
I0403 09:58:44.474478  5089 net.cpp:406] label_data_1_split <- label
I0403 09:58:44.474493  5089 net.cpp:380] label_data_1_split -> label_data_1_split_0
I0403 09:58:44.474516  5089 net.cpp:380] label_data_1_split -> label_data_1_split_1
I0403 09:58:44.474531  5089 net.cpp:380] label_data_1_split -> label_data_1_split_2
I0403 09:58:44.474834  5089 net.cpp:122] Setting up label_data_1_split
I0403 09:58:44.474851  5089 net.cpp:129] Top shape: 10 (10)
I0403 09:58:44.474859  5089 net.cpp:129] Top shape: 10 (10)
I0403 09:58:44.474867  5089 net.cpp:129] Top shape: 10 (10)
I0403 09:58:44.474872  5089 net.cpp:137] Memory required for data: 6021280
I0403 09:58:44.474881  5089 layer_factory.hpp:77] Creating layer conv1_1
I0403 09:58:44.474908  5089 net.cpp:84] Creating Layer conv1_1
I0403 09:58:44.474925  5089 net.cpp:406] conv1_1 <- data
I0403 09:58:44.474941  5089 net.cpp:380] conv1_1 -> conv1_1
I0403 09:58:44.483294  5089 net.cpp:122] Setting up conv1_1
I0403 09:58:44.483340  5089 net.cpp:129] Top shape: 10 64 224 224 (32112640)
I0403 09:58:44.483348  5089 net.cpp:137] Memory required for data: 134471840
I0403 09:58:44.483381  5089 layer_factory.hpp:77] Creating layer relu1_1
I0403 09:58:44.483407  5089 net.cpp:84] Creating Layer relu1_1
I0403 09:58:44.483423  5089 net.cpp:406] relu1_1 <- conv1_1
I0403 09:58:44.483436  5089 net.cpp:367] relu1_1 -> conv1_1 (in-place)
I0403 09:58:44.484462  5089 net.cpp:122] Setting up relu1_1
I0403 09:58:44.484496  5089 net.cpp:129] Top shape: 10 64 224 224 (32112640)
I0403 09:58:44.484511  5089 net.cpp:137] Memory required for data: 262922400
I0403 09:58:44.484521  5089 layer_factory.hpp:77] Creating layer conv1_2
I0403 09:58:44.484549  5089 net.cpp:84] Creating Layer conv1_2
I0403 09:58:44.484575  5089 net.cpp:406] conv1_2 <- conv1_1
I0403 09:58:44.484593  5089 net.cpp:380] conv1_2 -> conv1_2
I0403 09:58:44.487841  5089 net.cpp:122] Setting up conv1_2
I0403 09:58:44.487874  5089 net.cpp:129] Top shape: 10 64 224 224 (32112640)
I0403 09:58:44.487884  5089 net.cpp:137] Memory required for data: 391372960
I0403 09:58:44.487903  5089 layer_factory.hpp:77] Creating layer relu1_2
I0403 09:58:44.487920  5089 net.cpp:84] Creating Layer relu1_2
I0403 09:58:44.487929  5089 net.cpp:406] relu1_2 <- conv1_2
I0403 09:58:44.487957  5089 net.cpp:367] relu1_2 -> conv1_2 (in-place)
I0403 09:58:44.488988  5089 net.cpp:122] Setting up relu1_2
I0403 09:58:44.489019  5089 net.cpp:129] Top shape: 10 64 224 224 (32112640)
I0403 09:58:44.489034  5089 net.cpp:137] Memory required for data: 519823520
I0403 09:58:44.489042  5089 layer_factory.hpp:77] Creating layer pool1
I0403 09:58:44.489064  5089 net.cpp:84] Creating Layer pool1
I0403 09:58:44.489087  5089 net.cpp:406] pool1 <- conv1_2
I0403 09:58:44.489104  5089 net.cpp:380] pool1 -> pool1
I0403 09:58:44.489329  5089 net.cpp:122] Setting up pool1
I0403 09:58:44.489349  5089 net.cpp:129] Top shape: 10 64 112 112 (8028160)
I0403 09:58:44.489359  5089 net.cpp:137] Memory required for data: 551936160
I0403 09:58:44.489367  5089 layer_factory.hpp:77] Creating layer conv2_1
I0403 09:58:44.489384  5089 net.cpp:84] Creating Layer conv2_1
I0403 09:58:44.489392  5089 net.cpp:406] conv2_1 <- pool1
I0403 09:58:44.489413  5089 net.cpp:380] conv2_1 -> conv2_1
I0403 09:58:44.494742  5089 net.cpp:122] Setting up conv2_1
I0403 09:58:44.494779  5089 net.cpp:129] Top shape: 10 128 112 112 (16056320)
I0403 09:58:44.494791  5089 net.cpp:137] Memory required for data: 616161440
I0403 09:58:44.494813  5089 layer_factory.hpp:77] Creating layer relu2_1
I0403 09:58:44.494833  5089 net.cpp:84] Creating Layer relu2_1
I0403 09:58:44.494902  5089 net.cpp:406] relu2_1 <- conv2_1
I0403 09:58:44.494920  5089 net.cpp:367] relu2_1 -> conv2_1 (in-place)
I0403 09:58:44.495450  5089 net.cpp:122] Setting up relu2_1
I0403 09:58:44.495481  5089 net.cpp:129] Top shape: 10 128 112 112 (16056320)
I0403 09:58:44.495491  5089 net.cpp:137] Memory required for data: 680386720
I0403 09:58:44.495497  5089 layer_factory.hpp:77] Creating layer conv2_2
I0403 09:58:44.495517  5089 net.cpp:84] Creating Layer conv2_2
I0403 09:58:44.495527  5089 net.cpp:406] conv2_2 <- conv2_1
I0403 09:58:44.495551  5089 net.cpp:380] conv2_2 -> conv2_2
I0403 09:58:44.499356  5089 net.cpp:122] Setting up conv2_2
I0403 09:58:44.499388  5089 net.cpp:129] Top shape: 10 128 112 112 (16056320)
I0403 09:58:44.499400  5089 net.cpp:137] Memory required for data: 744612000
I0403 09:58:44.499414  5089 layer_factory.hpp:77] Creating layer relu2_2
I0403 09:58:44.499430  5089 net.cpp:84] Creating Layer relu2_2
I0403 09:58:44.499440  5089 net.cpp:406] relu2_2 <- conv2_2
I0403 09:58:44.499467  5089 net.cpp:367] relu2_2 -> conv2_2 (in-place)
I0403 09:58:44.499985  5089 net.cpp:122] Setting up relu2_2
I0403 09:58:44.500020  5089 net.cpp:129] Top shape: 10 128 112 112 (16056320)
I0403 09:58:44.500030  5089 net.cpp:137] Memory required for data: 808837280
I0403 09:58:44.500036  5089 layer_factory.hpp:77] Creating layer pool2
I0403 09:58:44.500053  5089 net.cpp:84] Creating Layer pool2
I0403 09:58:44.500062  5089 net.cpp:406] pool2 <- conv2_2
I0403 09:58:44.500074  5089 net.cpp:380] pool2 -> pool2
I0403 09:58:44.500288  5089 net.cpp:122] Setting up pool2
I0403 09:58:44.500309  5089 net.cpp:129] Top shape: 10 128 56 56 (4014080)
I0403 09:58:44.500317  5089 net.cpp:137] Memory required for data: 824893600
I0403 09:58:44.500324  5089 layer_factory.hpp:77] Creating layer conv3_1
I0403 09:58:44.500340  5089 net.cpp:84] Creating Layer conv3_1
I0403 09:58:44.500350  5089 net.cpp:406] conv3_1 <- pool2
I0403 09:58:44.500363  5089 net.cpp:380] conv3_1 -> conv3_1
I0403 09:58:44.507390  5089 net.cpp:122] Setting up conv3_1
I0403 09:58:44.507424  5089 net.cpp:129] Top shape: 10 256 56 56 (8028160)
I0403 09:58:44.507434  5089 net.cpp:137] Memory required for data: 857006240
I0403 09:58:44.507457  5089 layer_factory.hpp:77] Creating layer relu3_1
I0403 09:58:44.507473  5089 net.cpp:84] Creating Layer relu3_1
I0403 09:58:44.507483  5089 net.cpp:406] relu3_1 <- conv3_1
I0403 09:58:44.507495  5089 net.cpp:367] relu3_1 -> conv3_1 (in-place)
I0403 09:58:44.507953  5089 net.cpp:122] Setting up relu3_1
I0403 09:58:44.507977  5089 net.cpp:129] Top shape: 10 256 56 56 (8028160)
I0403 09:58:44.507987  5089 net.cpp:137] Memory required for data: 889118880
I0403 09:58:44.507993  5089 layer_factory.hpp:77] Creating layer conv3_2
I0403 09:58:44.508011  5089 net.cpp:84] Creating Layer conv3_2
I0403 09:58:44.508021  5089 net.cpp:406] conv3_2 <- conv3_1
I0403 09:58:44.508046  5089 net.cpp:380] conv3_2 -> conv3_2
I0403 09:58:44.514036  5089 net.cpp:122] Setting up conv3_2
I0403 09:58:44.514067  5089 net.cpp:129] Top shape: 10 256 56 56 (8028160)
I0403 09:58:44.514077  5089 net.cpp:137] Memory required for data: 921231520
I0403 09:58:44.514091  5089 layer_factory.hpp:77] Creating layer relu3_2
I0403 09:58:44.514106  5089 net.cpp:84] Creating Layer relu3_2
I0403 09:58:44.514116  5089 net.cpp:406] relu3_2 <- conv3_2
I0403 09:58:44.514127  5089 net.cpp:367] relu3_2 -> conv3_2 (in-place)
I0403 09:58:44.515463  5089 net.cpp:122] Setting up relu3_2
I0403 09:58:44.515491  5089 net.cpp:129] Top shape: 10 256 56 56 (8028160)
I0403 09:58:44.515498  5089 net.cpp:137] Memory required for data: 953344160
I0403 09:58:44.515506  5089 layer_factory.hpp:77] Creating layer conv3_3
I0403 09:58:44.515527  5089 net.cpp:84] Creating Layer conv3_3
I0403 09:58:44.515537  5089 net.cpp:406] conv3_3 <- conv3_2
I0403 09:58:44.515560  5089 net.cpp:380] conv3_3 -> conv3_3
I0403 09:58:44.521201  5089 net.cpp:122] Setting up conv3_3
I0403 09:58:44.521234  5089 net.cpp:129] Top shape: 10 256 56 56 (8028160)
I0403 09:58:44.521244  5089 net.cpp:137] Memory required for data: 985456800
I0403 09:58:44.521288  5089 layer_factory.hpp:77] Creating layer relu3_3
I0403 09:58:44.521306  5089 net.cpp:84] Creating Layer relu3_3
I0403 09:58:44.521314  5089 net.cpp:406] relu3_3 <- conv3_3
I0403 09:58:44.521325  5089 net.cpp:367] relu3_3 -> conv3_3 (in-place)
I0403 09:58:44.522182  5089 net.cpp:122] Setting up relu3_3
I0403 09:58:44.522212  5089 net.cpp:129] Top shape: 10 256 56 56 (8028160)
I0403 09:58:44.522220  5089 net.cpp:137] Memory required for data: 1017569440
I0403 09:58:44.522228  5089 layer_factory.hpp:77] Creating layer pool3
I0403 09:58:44.522243  5089 net.cpp:84] Creating Layer pool3
I0403 09:58:44.522258  5089 net.cpp:406] pool3 <- conv3_3
I0403 09:58:44.522270  5089 net.cpp:380] pool3 -> pool3
I0403 09:58:44.522511  5089 net.cpp:122] Setting up pool3
I0403 09:58:44.522531  5089 net.cpp:129] Top shape: 10 256 28 28 (2007040)
I0403 09:58:44.522541  5089 net.cpp:137] Memory required for data: 1025597600
I0403 09:58:44.522553  5089 layer_factory.hpp:77] Creating layer conv4_1_local_channel
I0403 09:58:44.522573  5089 net.cpp:84] Creating Layer conv4_1_local_channel
I0403 09:58:44.522583  5089 net.cpp:406] conv4_1_local_channel <- pool3
I0403 09:58:44.522595  5089 net.cpp:380] conv4_1_local_channel -> conv4_1
I0403 09:58:44.624567  5089 net.cpp:122] Setting up conv4_1_local_channel
I0403 09:58:44.624598  5089 net.cpp:129] Top shape: 10 512 28 28 (4014080)
I0403 09:58:44.624603  5089 net.cpp:137] Memory required for data: 1041653920
I0403 09:58:44.624619  5089 layer_factory.hpp:77] Creating layer relu4_1
I0403 09:58:44.624634  5089 net.cpp:84] Creating Layer relu4_1
I0403 09:58:44.624640  5089 net.cpp:406] relu4_1 <- conv4_1
I0403 09:58:44.624650  5089 net.cpp:367] relu4_1 -> conv4_1 (in-place)
I0403 09:58:44.624980  5089 net.cpp:122] Setting up relu4_1
I0403 09:58:44.625000  5089 net.cpp:129] Top shape: 10 512 28 28 (4014080)
I0403 09:58:44.625005  5089 net.cpp:137] Memory required for data: 1057710240
I0403 09:58:44.625010  5089 layer_factory.hpp:77] Creating layer conv4_2_local_channel
I0403 09:58:44.625027  5089 net.cpp:84] Creating Layer conv4_2_local_channel
I0403 09:58:44.625036  5089 net.cpp:406] conv4_2_local_channel <- conv4_1
I0403 09:58:44.625047  5089 net.cpp:380] conv4_2_local_channel -> conv4_2
I0403 09:58:44.827147  5089 net.cpp:122] Setting up conv4_2_local_channel
I0403 09:58:44.827196  5089 net.cpp:129] Top shape: 10 512 28 28 (4014080)
I0403 09:58:44.827205  5089 net.cpp:137] Memory required for data: 1073766560
I0403 09:58:44.827231  5089 layer_factory.hpp:77] Creating layer relu4_2
I0403 09:58:44.827286  5089 net.cpp:84] Creating Layer relu4_2
I0403 09:58:44.827302  5089 net.cpp:406] relu4_2 <- conv4_2
I0403 09:58:44.827312  5089 net.cpp:367] relu4_2 -> conv4_2 (in-place)
I0403 09:58:44.827651  5089 net.cpp:122] Setting up relu4_2
I0403 09:58:44.827668  5089 net.cpp:129] Top shape: 10 512 28 28 (4014080)
I0403 09:58:44.827673  5089 net.cpp:137] Memory required for data: 1089822880
I0403 09:58:44.827677  5089 layer_factory.hpp:77] Creating layer conv4_3_pointwise
I0403 09:58:44.827702  5089 net.cpp:84] Creating Layer conv4_3_pointwise
I0403 09:58:44.827709  5089 net.cpp:406] conv4_3_pointwise <- conv4_2
I0403 09:58:44.827719  5089 net.cpp:380] conv4_3_pointwise -> conv4_3
I0403 09:58:44.833766  5089 net.cpp:122] Setting up conv4_3_pointwise
I0403 09:58:44.833791  5089 net.cpp:129] Top shape: 10 512 28 28 (4014080)
I0403 09:58:44.833796  5089 net.cpp:137] Memory required for data: 1105879200
I0403 09:58:44.833806  5089 layer_factory.hpp:77] Creating layer relu4_3
I0403 09:58:44.833813  5089 net.cpp:84] Creating Layer relu4_3
I0403 09:58:44.833818  5089 net.cpp:406] relu4_3 <- conv4_3
I0403 09:58:44.833827  5089 net.cpp:367] relu4_3 -> conv4_3 (in-place)
I0403 09:58:44.834146  5089 net.cpp:122] Setting up relu4_3
I0403 09:58:44.834162  5089 net.cpp:129] Top shape: 10 512 28 28 (4014080)
I0403 09:58:44.834167  5089 net.cpp:137] Memory required for data: 1121935520
I0403 09:58:44.834170  5089 layer_factory.hpp:77] Creating layer pool4
I0403 09:58:44.834188  5089 net.cpp:84] Creating Layer pool4
I0403 09:58:44.834226  5089 net.cpp:406] pool4 <- conv4_3
I0403 09:58:44.834237  5089 net.cpp:380] pool4 -> pool4
I0403 09:58:44.834430  5089 net.cpp:122] Setting up pool4
I0403 09:58:44.834445  5089 net.cpp:129] Top shape: 10 512 14 14 (1003520)
I0403 09:58:44.834450  5089 net.cpp:137] Memory required for data: 1125949600
I0403 09:58:44.834455  5089 layer_factory.hpp:77] Creating layer conv5_1_local_channel
I0403 09:58:44.834468  5089 net.cpp:84] Creating Layer conv5_1_local_channel
I0403 09:58:44.834475  5089 net.cpp:406] conv5_1_local_channel <- pool4
I0403 09:58:44.834483  5089 net.cpp:380] conv5_1_local_channel -> conv5_1
I0403 09:58:45.029503  5089 net.cpp:122] Setting up conv5_1_local_channel
I0403 09:58:45.029549  5089 net.cpp:129] Top shape: 10 512 14 14 (1003520)
I0403 09:58:45.029557  5089 net.cpp:137] Memory required for data: 1129963680
I0403 09:58:45.029584  5089 layer_factory.hpp:77] Creating layer relu5_1
I0403 09:58:45.029599  5089 net.cpp:84] Creating Layer relu5_1
I0403 09:58:45.029613  5089 net.cpp:406] relu5_1 <- conv5_1
I0403 09:58:45.029625  5089 net.cpp:367] relu5_1 -> conv5_1 (in-place)
I0403 09:58:45.030164  5089 net.cpp:122] Setting up relu5_1
I0403 09:58:45.030192  5089 net.cpp:129] Top shape: 10 512 14 14 (1003520)
I0403 09:58:45.030198  5089 net.cpp:137] Memory required for data: 1133977760
I0403 09:58:45.030208  5089 layer_factory.hpp:77] Creating layer conv5_2_local_channel
I0403 09:58:45.030230  5089 net.cpp:84] Creating Layer conv5_2_local_channel
I0403 09:58:45.030238  5089 net.cpp:406] conv5_2_local_channel <- conv5_1
I0403 09:58:45.030253  5089 net.cpp:380] conv5_2_local_channel -> conv5_2
I0403 09:58:45.270385  5089 net.cpp:122] Setting up conv5_2_local_channel
I0403 09:58:45.270445  5089 net.cpp:129] Top shape: 10 512 14 14 (1003520)
I0403 09:58:45.270454  5089 net.cpp:137] Memory required for data: 1137991840
I0403 09:58:45.270478  5089 layer_factory.hpp:77] Creating layer relu5_2
I0403 09:58:45.270499  5089 net.cpp:84] Creating Layer relu5_2
I0403 09:58:45.270510  5089 net.cpp:406] relu5_2 <- conv5_2
I0403 09:58:45.270522  5089 net.cpp:367] relu5_2 -> conv5_2 (in-place)
I0403 09:58:45.270946  5089 net.cpp:122] Setting up relu5_2
I0403 09:58:45.270972  5089 net.cpp:129] Top shape: 10 512 14 14 (1003520)
I0403 09:58:45.270978  5089 net.cpp:137] Memory required for data: 1142005920
I0403 09:58:45.270985  5089 layer_factory.hpp:77] Creating layer conv5_3_pointwise
I0403 09:58:45.271005  5089 net.cpp:84] Creating Layer conv5_3_pointwise
I0403 09:58:45.271013  5089 net.cpp:406] conv5_3_pointwise <- conv5_2
I0403 09:58:45.271026  5089 net.cpp:380] conv5_3_pointwise -> conv5_3
I0403 09:58:45.279283  5089 net.cpp:122] Setting up conv5_3_pointwise
I0403 09:58:45.279321  5089 net.cpp:129] Top shape: 10 512 14 14 (1003520)
I0403 09:58:45.279330  5089 net.cpp:137] Memory required for data: 1146020000
I0403 09:58:45.279350  5089 layer_factory.hpp:77] Creating layer relu5_3
I0403 09:58:45.279367  5089 net.cpp:84] Creating Layer relu5_3
I0403 09:58:45.279376  5089 net.cpp:406] relu5_3 <- conv5_3
I0403 09:58:45.279389  5089 net.cpp:367] relu5_3 -> conv5_3 (in-place)
I0403 09:58:45.279875  5089 net.cpp:122] Setting up relu5_3
I0403 09:58:45.279904  5089 net.cpp:129] Top shape: 10 512 14 14 (1003520)
I0403 09:58:45.279912  5089 net.cpp:137] Memory required for data: 1150034080
I0403 09:58:45.279920  5089 layer_factory.hpp:77] Creating layer pool5
I0403 09:58:45.279964  5089 net.cpp:84] Creating Layer pool5
I0403 09:58:45.279976  5089 net.cpp:406] pool5 <- conv5_3
I0403 09:58:45.279990  5089 net.cpp:380] pool5 -> pool5
I0403 09:58:45.280406  5089 net.cpp:122] Setting up pool5
I0403 09:58:45.280436  5089 net.cpp:129] Top shape: 10 512 7 7 (250880)
I0403 09:58:45.280443  5089 net.cpp:137] Memory required for data: 1151037600
I0403 09:58:45.280452  5089 layer_factory.hpp:77] Creating layer fc6
I0403 09:58:45.280478  5089 net.cpp:84] Creating Layer fc6
I0403 09:58:45.280488  5089 net.cpp:406] fc6 <- pool5
I0403 09:58:45.280503  5089 net.cpp:380] fc6 -> fc6
I0403 09:58:45.615609  5089 net.cpp:122] Setting up fc6
I0403 09:58:45.615664  5089 net.cpp:129] Top shape: 10 4096 (40960)
I0403 09:58:45.615669  5089 net.cpp:137] Memory required for data: 1151201440
I0403 09:58:45.615682  5089 layer_factory.hpp:77] Creating layer relu6
I0403 09:58:45.615697  5089 net.cpp:84] Creating Layer relu6
I0403 09:58:45.615703  5089 net.cpp:406] relu6 <- fc6
I0403 09:58:45.615713  5089 net.cpp:367] relu6 -> fc6 (in-place)
I0403 09:58:45.616037  5089 net.cpp:122] Setting up relu6
I0403 09:58:45.616051  5089 net.cpp:129] Top shape: 10 4096 (40960)
I0403 09:58:45.616055  5089 net.cpp:137] Memory required for data: 1151365280
I0403 09:58:45.616060  5089 layer_factory.hpp:77] Creating layer drop6
I0403 09:58:45.616070  5089 net.cpp:84] Creating Layer drop6
I0403 09:58:45.616075  5089 net.cpp:406] drop6 <- fc6
I0403 09:58:45.616081  5089 net.cpp:367] drop6 -> fc6 (in-place)
I0403 09:58:45.616231  5089 net.cpp:122] Setting up drop6
I0403 09:58:45.616245  5089 net.cpp:129] Top shape: 10 4096 (40960)
I0403 09:58:45.616248  5089 net.cpp:137] Memory required for data: 1151529120
I0403 09:58:45.616253  5089 layer_factory.hpp:77] Creating layer fc7
I0403 09:58:45.616267  5089 net.cpp:84] Creating Layer fc7
I0403 09:58:45.616272  5089 net.cpp:406] fc7 <- fc6
I0403 09:58:45.616281  5089 net.cpp:380] fc7 -> fc7
I0403 09:58:45.666368  5089 net.cpp:122] Setting up fc7
I0403 09:58:45.666419  5089 net.cpp:129] Top shape: 10 4096 (40960)
I0403 09:58:45.666424  5089 net.cpp:137] Memory required for data: 1151692960
I0403 09:58:45.666440  5089 layer_factory.hpp:77] Creating layer relu7
I0403 09:58:45.666452  5089 net.cpp:84] Creating Layer relu7
I0403 09:58:45.666458  5089 net.cpp:406] relu7 <- fc7
I0403 09:58:45.666469  5089 net.cpp:367] relu7 -> fc7 (in-place)
I0403 09:58:45.667510  5089 net.cpp:122] Setting up relu7
I0403 09:58:45.667528  5089 net.cpp:129] Top shape: 10 4096 (40960)
I0403 09:58:45.667532  5089 net.cpp:137] Memory required for data: 1151856800
I0403 09:58:45.667536  5089 layer_factory.hpp:77] Creating layer drop7
I0403 09:58:45.667546  5089 net.cpp:84] Creating Layer drop7
I0403 09:58:45.667551  5089 net.cpp:406] drop7 <- fc7
I0403 09:58:45.667559  5089 net.cpp:367] drop7 -> fc7 (in-place)
I0403 09:58:45.667676  5089 net.cpp:122] Setting up drop7
I0403 09:58:45.667692  5089 net.cpp:129] Top shape: 10 4096 (40960)
I0403 09:58:45.667696  5089 net.cpp:137] Memory required for data: 1152020640
I0403 09:58:45.667701  5089 layer_factory.hpp:77] Creating layer fc8
I0403 09:58:45.667712  5089 net.cpp:84] Creating Layer fc8
I0403 09:58:45.667718  5089 net.cpp:406] fc8 <- fc7
I0403 09:58:45.667726  5089 net.cpp:380] fc8 -> fc8
I0403 09:58:45.700372  5089 net.cpp:122] Setting up fc8
I0403 09:58:45.700392  5089 net.cpp:129] Top shape: 10 1000 (10000)
I0403 09:58:45.700394  5089 net.cpp:137] Memory required for data: 1152060640
I0403 09:58:45.700404  5089 layer_factory.hpp:77] Creating layer fc8_fc8_0_split
I0403 09:58:45.700422  5089 net.cpp:84] Creating Layer fc8_fc8_0_split
I0403 09:58:45.700426  5089 net.cpp:406] fc8_fc8_0_split <- fc8
I0403 09:58:45.700435  5089 net.cpp:380] fc8_fc8_0_split -> fc8_fc8_0_split_0
I0403 09:58:45.700444  5089 net.cpp:380] fc8_fc8_0_split -> fc8_fc8_0_split_1
I0403 09:58:45.700453  5089 net.cpp:380] fc8_fc8_0_split -> fc8_fc8_0_split_2
I0403 09:58:45.700729  5089 net.cpp:122] Setting up fc8_fc8_0_split
I0403 09:58:45.700742  5089 net.cpp:129] Top shape: 10 1000 (10000)
I0403 09:58:45.700747  5089 net.cpp:129] Top shape: 10 1000 (10000)
I0403 09:58:45.700750  5089 net.cpp:129] Top shape: 10 1000 (10000)
I0403 09:58:45.700753  5089 net.cpp:137] Memory required for data: 1152180640
I0403 09:58:45.700757  5089 layer_factory.hpp:77] Creating layer loss
I0403 09:58:45.700765  5089 net.cpp:84] Creating Layer loss
I0403 09:58:45.700770  5089 net.cpp:406] loss <- fc8_fc8_0_split_0
I0403 09:58:45.700776  5089 net.cpp:406] loss <- label_data_1_split_0
I0403 09:58:45.700783  5089 net.cpp:380] loss -> loss/loss
…
