…
I0405 19:19:48.204474 21568 net.cpp:294] The NetState phase (0) differed from the phase (1) specified by a rule in layer accuracy/top5
I0405 19:19:48.204915 21568 net.cpp:51] Initializing net from parameters: 
name: "VGG_ILSVRC_16_layers"
state {
  phase: TRAIN
  level: 0
  stage: ""
}
layer {
  name: "data"
  type: "Data"
  top: "data"
  top: "label"
  include {
    phase: TRAIN
  }
  transform_param {
    mirror: true
    crop_size: 224
    mean_file: "/home/data/ImageNet/data/ilsvrc12/imagenet_mean.binaryproto"
  }
  data_param {
    source: "examples/imagenet/ilsvrc12_train_lmdb"
    batch_size: 75
    backend: LMDB
  }
}
layer {
  name: "conv1_1"
  type: "Convolution"
  bottom: "data"
  top: "conv1_1"
  param {
    lr_mult: 0
  }
  param {
    lr_mult: 0
  }
  convolution_param {
    num_output: 64
    pad: 1
    kernel_size: 3
  }
}
layer {
  name: "relu1_1"
  type: "ReLU"
  bottom: "conv1_1"
  top: "conv1_1"
}
layer {
  name: "conv1_2"
  type: "Convolution"
  bottom: "conv1_1"
  top: "conv1_2"
  param {
    lr_mult: 0
  }
  param {
    lr_mult: 0
  }
  convolution_param {
    num_output: 64
    pad: 1
    kernel_size: 3
  }
}
layer {
  name: "relu1_2"
  type: "ReLU"
  bottom: "conv1_2"
  top: "conv1_2"
}
layer {
  name: "pool1"
  type: "Pooling"
  bottom: "conv1_2"
  top: "pool1"
  pooling_param {
    pool: MAX
    kernel_size: 2
    stride: 2
  }
}
layer {
  name: "conv2_1"
  type: "Convolution"
  bottom: "pool1"
  top: "conv2_1"
  param {
    lr_mult: 0
  }
  param {
    lr_mult: 0
  }
  convolution_param {
    num_output: 128
    pad: 1
    kernel_size: 3
  }
}
layer {
  name: "relu2_1"
  type: "ReLU"
  bottom: "conv2_1"
  top: "conv2_1"
}
layer {
  name: "conv2_2"
  type: "Convolution"
  bottom: "conv2_1"
  top: "conv2_2"
  param {
    lr_mult: 0
  }
  param {
    lr_mult: 0
  }
  convolution_param {
    num_output: 128
    pad: 1
    kernel_size: 3
  }
}
layer {
  name: "relu2_2"
  type: "ReLU"
  bottom: "conv2_2"
  top: "conv2_2"
}
layer {
  name: "pool2"
  type: "Pooling"
  bottom: "conv2_2"
  top: "pool2"
  pooling_param {
    pool: MAX
    kernel_size: 2
    stride: 2
  }
}
layer {
  name: "conv3_1"
  type: "Convolution"
  bottom: "pool2"
  top: "conv3_1"
  param {
    lr_mult: 1
  }
  param {
    lr_mult: 2
  }
  convolution_param {
    num_output: 256
    pad: 1
    kernel_size: 3
  }
}
layer {
  name: "relu3_1"
  type: "ReLU"
  bottom: "conv3_1"
  top: "conv3_1"
}
layer {
  name: "conv3_2"
  type: "Convolution"
  bottom: "conv3_1"
  top: "conv3_2"
  param {
    lr_mult: 1
  }
  param {
    lr_mult: 2
  }
  convolution_param {
    num_output: 256
    pad: 1
    kernel_size: 3
  }
}
layer {
  name: "relu3_2"
  type: "ReLU"
  bottom: "conv3_2"
  top: "conv3_2"
}
layer {
  name: "conv3_3"
  type: "Convolution"
  bottom: "conv3_2"
  top: "conv3_3"
  param {
    lr_mult: 1
  }
  param {
    lr_mult: 2
  }
  convolution_param {
    num_output: 256
    pad: 1
    kernel_size: 3
  }
}
layer {
  name: "relu3_3"
  type: "ReLU"
  bottom: "conv3_3"
  top: "conv3_3"
}
layer {
  name: "pool3"
  type: "Pooling"
  bottom: "conv3_3"
  top: "pool3"
  pooling_param {
    pool: MAX
    kernel_size: 2
    stride: 2
  }
}
layer {
  name: "conv4_1_local_channel"
  type: "Convolution"
  bottom: "pool3"
  top: "conv4_1"
  param {
    lr_mult: 1
  }
  param {
    lr_mult: 2
  }
  convolution_param {
    pad: 1
    kernel_size: 3
    weight_filler {
      type: "xavier"
    }
    bias_filler {
      type: "constant"
      value: 0
    }
    force_local_channel: true
    kernel_c: 8
    stride_c: 4
    num_output_per_group: 8
  }
}
layer {
  name: "relu4_1"
  type: "ReLU"
  bottom: "conv4_1"
  top: "conv4_1"
}
layer {
  name: "conv4_2_local_channel"
  type: "Convolution"
  bottom: "conv4_1"
  top: "conv4_2"
  param {
    lr_mult: 1
  }
  param {
    lr_mult: 2
  }
  convolution_param {
    pad: 1
    kernel_size: 3
    weight_filler {
      type: "xavier"
    }
    bias_filler {
      type: "constant"
      value: 0
    }
    force_local_channel: true
    kernel_c: 8
    stride_c: 4
    num_output_per_group: 4
  }
}
layer {
  name: "relu4_2"
  type: "ReLU"
  bottom: "conv4_2"
  top: "conv4_2"
}
layer {
  name: "conv4_3_pointwise"
  type: "Convolution"
  bottom: "conv4_2"
  top: "conv4_3"
  param {
    lr_mult: 1
  }
  param {
    lr_mult: 2
  }
  convolution_param {
    num_output: 512
    pad: 0
    kernel_size: 1
    stride: 1
    weight_filler {
      type: "xavier"
    }
    bias_filler {
      type: "constant"
      value: 0
    }
  }
}
layer {
  name: "relu4_3"
  type: "ReLU"
  bottom: "conv4_3"
  top: "conv4_3"
}
layer {
  name: "pool4"
  type: "Pooling"
  bottom: "conv4_3"
  top: "pool4"
  pooling_param {
    pool: MAX
    kernel_size: 2
    stride: 2
  }
}
layer {
  name: "conv5_1_local_channel"
  type: "Convolution"
  bottom: "pool4"
  top: "conv5_1"
  param {
    lr_mult: 1
  }
  param {
    lr_mult: 2
  }
  convolution_param {
    pad: 1
    kernel_size: 3
    weight_filler {
      type: "xavier"
    }
    bias_filler {
      type: "constant"
      value: 0
    }
    force_local_channel: true
    kernel_c: 8
    stride_c: 4
    num_output_per_group: 8
  }
}
layer {
  name: "relu5_1"
  type: "ReLU"
  bottom: "conv5_1"
  top: "conv5_1"
}
layer {
  name: "conv5_2_local_channel"
  type: "Convolution"
  bottom: "conv5_1"
  top: "conv5_2"
  param {
    lr_mult: 1
  }
  param {
    lr_mult: 2
  }
  convolution_param {
    pad: 1
    kernel_size: 3
    weight_filler {
      type: "xavier"
    }
    bias_filler {
      type: "constant"
      value: 0
    }
    force_local_channel: true
    kernel_c: 8
    stride_c: 4
    num_output_per_group: 4
  }
}
layer {
  name: "relu5_2"
  type: "ReLU"
  bottom: "conv5_2"
  top: "conv5_2"
}
layer {
  name: "conv5_3_pointwise"
  type: "Convolution"
  bottom: "conv5_2"
  top: "conv5_3"
  param {
    lr_mult: 1
  }
  param {
    lr_mult: 2
  }
  convolution_param {
    num_output: 512
    pad: 0
    kernel_size: 1
    stride: 1
    weight_filler {
      type: "xavier"
    }
    bias_filler {
      type: "constant"
      value: 0
    }
  }
}
layer {
  name: "relu5_3"
  type: "ReLU"
  bottom: "conv5_3"
  top: "conv5_3"
}
layer {
  name: "pool5"
  type: "Pooling"
  bottom: "conv5_3"
  top: "pool5"
  pooling_param {
    pool: MAX
    kernel_size: 2
    stride: 2
  }
}
layer {
  name: "fc6"
  type: "InnerProduct"
  bottom: "pool5"
  top: "fc6"
  param {
    lr_mult: 1
  }
  param {
    lr_mult: 2
  }
  inner_product_param {
    num_output: 4096
  }
}
layer {
  name: "relu6"
  type: "ReLU"
  bottom: "fc6"
  top: "fc6"
}
layer {
  name: "drop6"
  type: "Dropout"
  bottom: "fc6"
  top: "fc6"
  dropout_param {
    dropout_ratio: 0.5
  }
}
layer {
  name: "fc7"
  type: "InnerProduct"
  bottom: "fc6"
  top: "fc7"
  param {
    lr_mult: 1
  }
  param {
    lr_mult: 2
  }
  inner_product_param {
    num_output: 4096
  }
}
layer {
  name: "relu7"
  type: "ReLU"
  bottom: "fc7"
  top: "fc7"
}
layer {
  name: "drop7"
  type: "Dropout"
  bottom: "fc7"
  top: "fc7"
  dropout_param {
    dropout_ratio: 0.5
  }
}
layer {
  name: "fc8"
  type: "InnerProduct"
  bottom: "fc7"
  top: "fc8"
  param {
    lr_mult: 1
    decay_mult: 1
  }
  param {
    lr_mult: 2
    decay_mult: 0
  }
  inner_product_param {
    num_output: 1000
    weight_filler {
      type: "xavier"
    }
    bias_filler {
      type: "constant"
      value: 0
    }
  }
}
layer {
  name: "loss"
  type: "SoftmaxWithLoss"
  bottom: "fc8"
  bottom: "label"
  top: "loss/loss"
}
I0405 19:19:48.212023 21568 layer_factory.hpp:77] Creating layer data
I0405 19:19:48.227071 21568 db_lmdb.cpp:35] Opened lmdb examples/imagenet/ilsvrc12_train_lmdb
I0405 19:19:48.227169 21568 net.cpp:84] Creating Layer data
I0405 19:19:48.227192 21568 net.cpp:380] data -> data
I0405 19:19:48.227232 21568 net.cpp:380] data -> label
I0405 19:19:48.227260 21568 data_transformer.cpp:25] Loading mean file from: /home/data/ImageNet/data/ilsvrc12/imagenet_mean.binaryproto
I0405 19:19:48.290607 21568 data_layer.cpp:45] output data size: 75,3,224,224
I0405 19:19:48.435603 21568 net.cpp:122] Setting up data
I0405 19:19:48.435744 21568 net.cpp:129] Top shape: 75 3 224 224 (11289600)
I0405 19:19:48.435786 21568 net.cpp:129] Top shape: 75 (75)
I0405 19:19:48.435796 21568 net.cpp:137] Memory required for data: 45158700
I0405 19:19:48.435843 21568 layer_factory.hpp:77] Creating layer conv1_1
I0405 19:19:48.435951 21568 net.cpp:84] Creating Layer conv1_1
I0405 19:19:48.435971 21568 net.cpp:406] conv1_1 <- data
I0405 19:19:48.436018 21568 net.cpp:380] conv1_1 -> conv1_1
I0405 19:19:49.041785 21568 net.cpp:122] Setting up conv1_1
I0405 19:19:49.041826 21568 net.cpp:129] Top shape: 75 64 224 224 (240844800)
I0405 19:19:49.041829 21568 net.cpp:137] Memory required for data: 1008537900
I0405 19:19:49.041855 21568 layer_factory.hpp:77] Creating layer relu1_1
I0405 19:19:49.041872 21568 net.cpp:84] Creating Layer relu1_1
I0405 19:19:49.041877 21568 net.cpp:406] relu1_1 <- conv1_1
I0405 19:19:49.041885 21568 net.cpp:367] relu1_1 -> conv1_1 (in-place)
I0405 19:19:49.042110 21568 net.cpp:122] Setting up relu1_1
I0405 19:19:49.042125 21568 net.cpp:129] Top shape: 75 64 224 224 (240844800)
I0405 19:19:49.042129 21568 net.cpp:137] Memory required for data: 1971917100
I0405 19:19:49.042132 21568 layer_factory.hpp:77] Creating layer conv1_2
I0405 19:19:49.042146 21568 net.cpp:84] Creating Layer conv1_2
I0405 19:19:49.042150 21568 net.cpp:406] conv1_2 <- conv1_1
I0405 19:19:49.042156 21568 net.cpp:380] conv1_2 -> conv1_2
I0405 19:19:49.043337 21568 net.cpp:122] Setting up conv1_2
I0405 19:19:49.043356 21568 net.cpp:129] Top shape: 75 64 224 224 (240844800)
I0405 19:19:49.043359 21568 net.cpp:137] Memory required for data: 2935296300
I0405 19:19:49.043370 21568 layer_factory.hpp:77] Creating layer relu1_2
I0405 19:19:49.043380 21568 net.cpp:84] Creating Layer relu1_2
I0405 19:19:49.043385 21568 net.cpp:406] relu1_2 <- conv1_2
I0405 19:19:49.043390 21568 net.cpp:367] relu1_2 -> conv1_2 (in-place)
I0405 19:19:49.043577 21568 net.cpp:122] Setting up relu1_2
I0405 19:19:49.043591 21568 net.cpp:129] Top shape: 75 64 224 224 (240844800)
I0405 19:19:49.043593 21568 net.cpp:137] Memory required for data: 3898675500
I0405 19:19:49.043596 21568 layer_factory.hpp:77] Creating layer pool1
I0405 19:19:49.043606 21568 net.cpp:84] Creating Layer pool1
I0405 19:19:49.043611 21568 net.cpp:406] pool1 <- conv1_2
I0405 19:19:49.043615 21568 net.cpp:380] pool1 -> pool1
I0405 19:19:49.043679 21568 net.cpp:122] Setting up pool1
I0405 19:19:49.043689 21568 net.cpp:129] Top shape: 75 64 112 112 (60211200)
I0405 19:19:49.043692 21568 net.cpp:137] Memory required for data: 4139520300
I0405 19:19:49.043695 21568 layer_factory.hpp:77] Creating layer conv2_1
I0405 19:19:49.043706 21568 net.cpp:84] Creating Layer conv2_1
I0405 19:19:49.043709 21568 net.cpp:406] conv2_1 <- pool1
I0405 19:19:49.043715 21568 net.cpp:380] conv2_1 -> conv2_1
I0405 19:19:49.046228 21568 net.cpp:122] Setting up conv2_1
I0405 19:19:49.046247 21568 net.cpp:129] Top shape: 75 128 112 112 (120422400)
I0405 19:19:49.046252 21568 net.cpp:137] Memory required for data: 4621209900
I0405 19:19:49.046262 21568 layer_factory.hpp:77] Creating layer relu2_1
I0405 19:19:49.046270 21568 net.cpp:84] Creating Layer relu2_1
I0405 19:19:49.046305 21568 net.cpp:406] relu2_1 <- conv2_1
I0405 19:19:49.046313 21568 net.cpp:367] relu2_1 -> conv2_1 (in-place)
I0405 19:19:49.046524 21568 net.cpp:122] Setting up relu2_1
I0405 19:19:49.046537 21568 net.cpp:129] Top shape: 75 128 112 112 (120422400)
I0405 19:19:49.046540 21568 net.cpp:137] Memory required for data: 5102899500
I0405 19:19:49.046543 21568 layer_factory.hpp:77] Creating layer conv2_2
I0405 19:19:49.046555 21568 net.cpp:84] Creating Layer conv2_2
I0405 19:19:49.046557 21568 net.cpp:406] conv2_2 <- conv2_1
I0405 19:19:49.046563 21568 net.cpp:380] conv2_2 -> conv2_2
I0405 19:19:49.048012 21568 net.cpp:122] Setting up conv2_2
I0405 19:19:49.048029 21568 net.cpp:129] Top shape: 75 128 112 112 (120422400)
I0405 19:19:49.048033 21568 net.cpp:137] Memory required for data: 5584589100
I0405 19:19:49.048041 21568 layer_factory.hpp:77] Creating layer relu2_2
I0405 19:19:49.048048 21568 net.cpp:84] Creating Layer relu2_2
I0405 19:19:49.048051 21568 net.cpp:406] relu2_2 <- conv2_2
I0405 19:19:49.048058 21568 net.cpp:367] relu2_2 -> conv2_2 (in-place)
I0405 19:19:49.048249 21568 net.cpp:122] Setting up relu2_2
I0405 19:19:49.048262 21568 net.cpp:129] Top shape: 75 128 112 112 (120422400)
I0405 19:19:49.048265 21568 net.cpp:137] Memory required for data: 6066278700
I0405 19:19:49.048271 21568 layer_factory.hpp:77] Creating layer pool2
I0405 19:19:49.048279 21568 net.cpp:84] Creating Layer pool2
I0405 19:19:49.048281 21568 net.cpp:406] pool2 <- conv2_2
I0405 19:19:49.048287 21568 net.cpp:380] pool2 -> pool2
I0405 19:19:49.048336 21568 net.cpp:122] Setting up pool2
I0405 19:19:49.048344 21568 net.cpp:129] Top shape: 75 128 56 56 (30105600)
I0405 19:19:49.048347 21568 net.cpp:137] Memory required for data: 6186701100
I0405 19:19:49.048351 21568 layer_factory.hpp:77] Creating layer conv3_1
I0405 19:19:49.048358 21568 net.cpp:84] Creating Layer conv3_1
I0405 19:19:49.048362 21568 net.cpp:406] conv3_1 <- pool2
I0405 19:19:49.048367 21568 net.cpp:380] conv3_1 -> conv3_1
I0405 19:19:49.052089 21568 net.cpp:122] Setting up conv3_1
I0405 19:19:49.052109 21568 net.cpp:129] Top shape: 75 256 56 56 (60211200)
I0405 19:19:49.052114 21568 net.cpp:137] Memory required for data: 6427545900
I0405 19:19:49.052124 21568 layer_factory.hpp:77] Creating layer relu3_1
I0405 19:19:49.052131 21568 net.cpp:84] Creating Layer relu3_1
I0405 19:19:49.052136 21568 net.cpp:406] relu3_1 <- conv3_1
I0405 19:19:49.052142 21568 net.cpp:367] relu3_1 -> conv3_1 (in-place)
I0405 19:19:49.052593 21568 net.cpp:122] Setting up relu3_1
I0405 19:19:49.052609 21568 net.cpp:129] Top shape: 75 256 56 56 (60211200)
I0405 19:19:49.052613 21568 net.cpp:137] Memory required for data: 6668390700
I0405 19:19:49.052616 21568 layer_factory.hpp:77] Creating layer conv3_2
I0405 19:19:49.052628 21568 net.cpp:84] Creating Layer conv3_2
I0405 19:19:49.052633 21568 net.cpp:406] conv3_2 <- conv3_1
I0405 19:19:49.052639 21568 net.cpp:380] conv3_2 -> conv3_2
I0405 19:19:49.055382 21568 net.cpp:122] Setting up conv3_2
I0405 19:19:49.055400 21568 net.cpp:129] Top shape: 75 256 56 56 (60211200)
I0405 19:19:49.055404 21568 net.cpp:137] Memory required for data: 6909235500
I0405 19:19:49.055413 21568 layer_factory.hpp:77] Creating layer relu3_2
I0405 19:19:49.055419 21568 net.cpp:84] Creating Layer relu3_2
I0405 19:19:49.055423 21568 net.cpp:406] relu3_2 <- conv3_2
I0405 19:19:49.055429 21568 net.cpp:367] relu3_2 -> conv3_2 (in-place)
I0405 19:19:49.055824 21568 net.cpp:122] Setting up relu3_2
I0405 19:19:49.055841 21568 net.cpp:129] Top shape: 75 256 56 56 (60211200)
I0405 19:19:49.055845 21568 net.cpp:137] Memory required for data: 7150080300
I0405 19:19:49.055848 21568 layer_factory.hpp:77] Creating layer conv3_3
I0405 19:19:49.055856 21568 net.cpp:84] Creating Layer conv3_3
I0405 19:19:49.055860 21568 net.cpp:406] conv3_3 <- conv3_2
I0405 19:19:49.055867 21568 net.cpp:380] conv3_3 -> conv3_3
I0405 19:19:49.059605 21568 net.cpp:122] Setting up conv3_3
I0405 19:19:49.059649 21568 net.cpp:129] Top shape: 75 256 56 56 (60211200)
I0405 19:19:49.059656 21568 net.cpp:137] Memory required for data: 7390925100
I0405 19:19:49.059722 21568 layer_factory.hpp:77] Creating layer relu3_3
I0405 19:19:49.059747 21568 net.cpp:84] Creating Layer relu3_3
I0405 19:19:49.059757 21568 net.cpp:406] relu3_3 <- conv3_3
I0405 19:19:49.059770 21568 net.cpp:367] relu3_3 -> conv3_3 (in-place)
I0405 19:19:49.060245 21568 net.cpp:122] Setting up relu3_3
I0405 19:19:49.060267 21568 net.cpp:129] Top shape: 75 256 56 56 (60211200)
I0405 19:19:49.060273 21568 net.cpp:137] Memory required for data: 7631769900
I0405 19:19:49.060279 21568 layer_factory.hpp:77] Creating layer pool3
I0405 19:19:49.060312 21568 net.cpp:84] Creating Layer pool3
I0405 19:19:49.060319 21568 net.cpp:406] pool3 <- conv3_3
I0405 19:19:49.060330 21568 net.cpp:380] pool3 -> pool3
I0405 19:19:49.060447 21568 net.cpp:122] Setting up pool3
I0405 19:19:49.060462 21568 net.cpp:129] Top shape: 75 256 28 28 (15052800)
I0405 19:19:49.060468 21568 net.cpp:137] Memory required for data: 7691981100
I0405 19:19:49.060474 21568 layer_factory.hpp:77] Creating layer conv4_1_local_channel
I0405 19:19:49.060495 21568 net.cpp:84] Creating Layer conv4_1_local_channel
I0405 19:19:49.060504 21568 net.cpp:406] conv4_1_local_channel <- pool3
I0405 19:19:49.060516 21568 net.cpp:380] conv4_1_local_channel -> conv4_1
I0405 19:19:49.151201 21568 net.cpp:122] Setting up conv4_1_local_channel
I0405 19:19:49.151242 21568 net.cpp:129] Top shape: 75 512 28 28 (30105600)
I0405 19:19:49.151250 21568 net.cpp:137] Memory required for data: 7812403500
I0405 19:19:49.151285 21568 layer_factory.hpp:77] Creating layer relu4_1
I0405 19:19:49.151301 21568 net.cpp:84] Creating Layer relu4_1
I0405 19:19:49.151310 21568 net.cpp:406] relu4_1 <- conv4_1
I0405 19:19:49.151321 21568 net.cpp:367] relu4_1 -> conv4_1 (in-place)
I0405 19:19:49.151839 21568 net.cpp:122] Setting up relu4_1
I0405 19:19:49.151863 21568 net.cpp:129] Top shape: 75 512 28 28 (30105600)
I0405 19:19:49.151870 21568 net.cpp:137] Memory required for data: 7932825900
I0405 19:19:49.151877 21568 layer_factory.hpp:77] Creating layer conv4_2_local_channel
I0405 19:19:49.151906 21568 net.cpp:84] Creating Layer conv4_2_local_channel
I0405 19:19:49.151913 21568 net.cpp:406] conv4_2_local_channel <- conv4_1
I0405 19:19:49.151937 21568 net.cpp:380] conv4_2_local_channel -> conv4_2
I0405 19:19:49.337734 21568 net.cpp:122] Setting up conv4_2_local_channel
I0405 19:19:49.337759 21568 net.cpp:129] Top shape: 75 512 28 28 (30105600)
I0405 19:19:49.337764 21568 net.cpp:137] Memory required for data: 8053248300
I0405 19:19:49.337781 21568 layer_factory.hpp:77] Creating layer relu4_2
I0405 19:19:49.337790 21568 net.cpp:84] Creating Layer relu4_2
I0405 19:19:49.337795 21568 net.cpp:406] relu4_2 <- conv4_2
I0405 19:19:49.337801 21568 net.cpp:367] relu4_2 -> conv4_2 (in-place)
I0405 19:19:49.338090 21568 net.cpp:122] Setting up relu4_2
I0405 19:19:49.338105 21568 net.cpp:129] Top shape: 75 512 28 28 (30105600)
I0405 19:19:49.338109 21568 net.cpp:137] Memory required for data: 8173670700
I0405 19:19:49.338112 21568 layer_factory.hpp:77] Creating layer conv4_3_pointwise
I0405 19:19:49.338129 21568 net.cpp:84] Creating Layer conv4_3_pointwise
I0405 19:19:49.338133 21568 net.cpp:406] conv4_3_pointwise <- conv4_2
I0405 19:19:49.338141 21568 net.cpp:380] conv4_3_pointwise -> conv4_3
I0405 19:19:49.346566 21568 net.cpp:122] Setting up conv4_3_pointwise
I0405 19:19:49.346618 21568 net.cpp:129] Top shape: 75 512 28 28 (30105600)
I0405 19:19:49.346626 21568 net.cpp:137] Memory required for data: 8294093100
I0405 19:19:49.346645 21568 layer_factory.hpp:77] Creating layer relu4_3
I0405 19:19:49.346663 21568 net.cpp:84] Creating Layer relu4_3
I0405 19:19:49.346675 21568 net.cpp:406] relu4_3 <- conv4_3
I0405 19:19:49.346688 21568 net.cpp:367] relu4_3 -> conv4_3 (in-place)
I0405 19:19:49.347167 21568 net.cpp:122] Setting up relu4_3
I0405 19:19:49.347188 21568 net.cpp:129] Top shape: 75 512 28 28 (30105600)
I0405 19:19:49.347194 21568 net.cpp:137] Memory required for data: 8414515500
I0405 19:19:49.347218 21568 layer_factory.hpp:77] Creating layer pool4
I0405 19:19:49.347304 21568 net.cpp:84] Creating Layer pool4
I0405 19:19:49.347314 21568 net.cpp:406] pool4 <- conv4_3
I0405 19:19:49.347328 21568 net.cpp:380] pool4 -> pool4
I0405 19:19:49.347470 21568 net.cpp:122] Setting up pool4
I0405 19:19:49.347493 21568 net.cpp:129] Top shape: 75 512 14 14 (7526400)
I0405 19:19:49.347499 21568 net.cpp:137] Memory required for data: 8444621100
I0405 19:19:49.347506 21568 layer_factory.hpp:77] Creating layer conv5_1_local_channel
I0405 19:19:49.347527 21568 net.cpp:84] Creating Layer conv5_1_local_channel
I0405 19:19:49.347534 21568 net.cpp:406] conv5_1_local_channel <- pool4
I0405 19:19:49.347549 21568 net.cpp:380] conv5_1_local_channel -> conv5_1
I0405 19:19:49.573158 21568 net.cpp:122] Setting up conv5_1_local_channel
I0405 19:19:49.573196 21568 net.cpp:129] Top shape: 75 1024 14 14 (15052800)
I0405 19:19:49.573204 21568 net.cpp:137] Memory required for data: 8504832300
I0405 19:19:49.573220 21568 layer_factory.hpp:77] Creating layer relu5_1
I0405 19:19:49.573233 21568 net.cpp:84] Creating Layer relu5_1
I0405 19:19:49.573241 21568 net.cpp:406] relu5_1 <- conv5_1
I0405 19:19:49.573256 21568 net.cpp:367] relu5_1 -> conv5_1 (in-place)
I0405 19:19:49.573812 21568 net.cpp:122] Setting up relu5_1
I0405 19:19:49.573840 21568 net.cpp:129] Top shape: 75 1024 14 14 (15052800)
I0405 19:19:49.573845 21568 net.cpp:137] Memory required for data: 8565043500
I0405 19:19:49.573851 21568 layer_factory.hpp:77] Creating layer conv5_2_local_channel
I0405 19:19:49.573876 21568 net.cpp:84] Creating Layer conv5_2_local_channel
I0405 19:19:49.573885 21568 net.cpp:406] conv5_2_local_channel <- conv5_1
I0405 19:19:49.573897 21568 net.cpp:380] conv5_2_local_channel -> conv5_2
I0405 19:19:50.003190 21568 net.cpp:122] Setting up conv5_2_local_channel
I0405 19:19:50.003224 21568 net.cpp:129] Top shape: 75 1024 14 14 (15052800)
I0405 19:19:50.003228 21568 net.cpp:137] Memory required for data: 8625254700
I0405 19:19:50.003239 21568 layer_factory.hpp:77] Creating layer relu5_2
I0405 19:19:50.003249 21568 net.cpp:84] Creating Layer relu5_2
I0405 19:19:50.003257 21568 net.cpp:406] relu5_2 <- conv5_2
I0405 19:19:50.003274 21568 net.cpp:367] relu5_2 -> conv5_2 (in-place)
I0405 19:19:50.003955 21568 net.cpp:122] Setting up relu5_2
I0405 19:19:50.003978 21568 net.cpp:129] Top shape: 75 1024 14 14 (15052800)
I0405 19:19:50.003983 21568 net.cpp:137] Memory required for data: 8685465900
I0405 19:19:50.003988 21568 layer_factory.hpp:77] Creating layer conv5_3_pointwise
I0405 19:19:50.004005 21568 net.cpp:84] Creating Layer conv5_3_pointwise
I0405 19:19:50.004011 21568 net.cpp:406] conv5_3_pointwise <- conv5_2
I0405 19:19:50.004024 21568 net.cpp:380] conv5_3_pointwise -> conv5_3
I0405 19:19:50.011852 21568 net.cpp:122] Setting up conv5_3_pointwise
I0405 19:19:50.011874 21568 net.cpp:129] Top shape: 75 512 14 14 (7526400)
I0405 19:19:50.011878 21568 net.cpp:137] Memory required for data: 8715571500
I0405 19:19:50.011888 21568 layer_factory.hpp:77] Creating layer relu5_3
I0405 19:19:50.011896 21568 net.cpp:84] Creating Layer relu5_3
I0405 19:19:50.011901 21568 net.cpp:406] relu5_3 <- conv5_3
I0405 19:19:50.011910 21568 net.cpp:367] relu5_3 -> conv5_3 (in-place)
I0405 19:19:50.012573 21568 net.cpp:122] Setting up relu5_3
I0405 19:19:50.012593 21568 net.cpp:129] Top shape: 75 512 14 14 (7526400)
I0405 19:19:50.012596 21568 net.cpp:137] Memory required for data: 8745677100
I0405 19:19:50.012603 21568 layer_factory.hpp:77] Creating layer pool5
I0405 19:19:50.012615 21568 net.cpp:84] Creating Layer pool5
I0405 19:19:50.012619 21568 net.cpp:406] pool5 <- conv5_3
I0405 19:19:50.012627 21568 net.cpp:380] pool5 -> pool5
I0405 19:19:50.012800 21568 net.cpp:122] Setting up pool5
I0405 19:19:50.012814 21568 net.cpp:129] Top shape: 75 512 7 7 (1881600)
I0405 19:19:50.012818 21568 net.cpp:137] Memory required for data: 8753203500
I0405 19:19:50.012821 21568 layer_factory.hpp:77] Creating layer fc6
I0405 19:19:50.012845 21568 net.cpp:84] Creating Layer fc6
I0405 19:19:50.012852 21568 net.cpp:406] fc6 <- pool5
I0405 19:19:50.012861 21568 net.cpp:380] fc6 -> fc6
I0405 19:19:50.321384 21568 net.cpp:122] Setting up fc6
I0405 19:19:50.321426 21568 net.cpp:129] Top shape: 75 4096 (307200)
I0405 19:19:50.321430 21568 net.cpp:137] Memory required for data: 8754432300
I0405 19:19:50.321442 21568 layer_factory.hpp:77] Creating layer relu6
I0405 19:19:50.321454 21568 net.cpp:84] Creating Layer relu6
I0405 19:19:50.321458 21568 net.cpp:406] relu6 <- fc6
I0405 19:19:50.321465 21568 net.cpp:367] relu6 -> fc6 (in-place)
I0405 19:19:50.321800 21568 net.cpp:122] Setting up relu6
I0405 19:19:50.321813 21568 net.cpp:129] Top shape: 75 4096 (307200)
I0405 19:19:50.321816 21568 net.cpp:137] Memory required for data: 8755661100
I0405 19:19:50.321820 21568 layer_factory.hpp:77] Creating layer drop6
I0405 19:19:50.321830 21568 net.cpp:84] Creating Layer drop6
I0405 19:19:50.321833 21568 net.cpp:406] drop6 <- fc6
I0405 19:19:50.321840 21568 net.cpp:367] drop6 -> fc6 (in-place)
I0405 19:19:50.321933 21568 net.cpp:122] Setting up drop6
I0405 19:19:50.321944 21568 net.cpp:129] Top shape: 75 4096 (307200)
I0405 19:19:50.321947 21568 net.cpp:137] Memory required for data: 8756889900
I0405 19:19:50.321954 21568 layer_factory.hpp:77] Creating layer fc7
I0405 19:19:50.321962 21568 net.cpp:84] Creating Layer fc7
I0405 19:19:50.321965 21568 net.cpp:406] fc7 <- fc6
I0405 19:19:50.321974 21568 net.cpp:380] fc7 -> fc7
I0405 19:19:50.372297 21568 net.cpp:122] Setting up fc7
I0405 19:19:50.372339 21568 net.cpp:129] Top shape: 75 4096 (307200)
I0405 19:19:50.372344 21568 net.cpp:137] Memory required for data: 8758118700
I0405 19:19:50.372356 21568 layer_factory.hpp:77] Creating layer relu7
I0405 19:19:50.372370 21568 net.cpp:84] Creating Layer relu7
I0405 19:19:50.372375 21568 net.cpp:406] relu7 <- fc7
I0405 19:19:50.372382 21568 net.cpp:367] relu7 -> fc7 (in-place)
I0405 19:19:50.372727 21568 net.cpp:122] Setting up relu7
I0405 19:19:50.372740 21568 net.cpp:129] Top shape: 75 4096 (307200)
I0405 19:19:50.372743 21568 net.cpp:137] Memory required for data: 8759347500
I0405 19:19:50.372746 21568 layer_factory.hpp:77] Creating layer drop7
I0405 19:19:50.372754 21568 net.cpp:84] Creating Layer drop7
I0405 19:19:50.372758 21568 net.cpp:406] drop7 <- fc7
I0405 19:19:50.372767 21568 net.cpp:367] drop7 -> fc7 (in-place)
I0405 19:19:50.372854 21568 net.cpp:122] Setting up drop7
I0405 19:19:50.372869 21568 net.cpp:129] Top shape: 75 4096 (307200)
I0405 19:19:50.372871 21568 net.cpp:137] Memory required for data: 8760576300
I0405 19:19:50.372874 21568 layer_factory.hpp:77] Creating layer fc8
I0405 19:19:50.372884 21568 net.cpp:84] Creating Layer fc8
I0405 19:19:50.372887 21568 net.cpp:406] fc8 <- fc7
I0405 19:19:50.372896 21568 net.cpp:380] fc8 -> fc8
I0405 19:19:50.405520 21568 net.cpp:122] Setting up fc8
I0405 19:19:50.405539 21568 net.cpp:129] Top shape: 75 1000 (75000)
I0405 19:19:50.405541 21568 net.cpp:137] Memory required for data: 8760876300
I0405 19:19:50.405550 21568 layer_factory.hpp:77] Creating layer loss
I0405 19:19:50.405560 21568 net.cpp:84] Creating Layer loss
I0405 19:19:50.405565 21568 net.cpp:406] loss <- fc8
I0405 19:19:50.405571 21568 net.cpp:406] loss <- label
I0405 19:19:50.405580 21568 net.cpp:380] loss -> loss/loss
I0405 19:19:50.405602 21568 layer_factory.hpp:77] Creating layer loss
…
I0405 19:19:50.407567 21568 net.cpp:294] The NetState phase (1) differed from the phase (0) specified by a rule in layer data
I0405 19:19:50.407796 21568 net.cpp:51] Initializing net from parameters: 
name: "VGG_ILSVRC_16_layers"
state {
  phase: TEST
}
layer {
  name: "data"
  type: "Data"
  top: "data"
  top: "label"
  include {
    phase: TEST
  }
  transform_param {
    mirror: false
    crop_size: 224
    mean_file: "/home/data/ImageNet/data/ilsvrc12/imagenet_mean.binaryproto"
  }
  data_param {
    source: "examples/imagenet/ilsvrc12_val_lmdb"
    batch_size: 10
    backend: LMDB
  }
}
layer {
  name: "conv1_1"
  type: "Convolution"
  bottom: "data"
  top: "conv1_1"
  param {
    lr_mult: 0
  }
  param {
    lr_mult: 0
  }
  convolution_param {
    num_output: 64
    pad: 1
    kernel_size: 3
  }
}
layer {
  name: "relu1_1"
  type: "ReLU"
  bottom: "conv1_1"
  top: "conv1_1"
}
layer {
  name: "conv1_2"
  type: "Convolution"
  bottom: "conv1_1"
  top: "conv1_2"
  param {
    lr_mult: 0
  }
  param {
    lr_mult: 0
  }
  convolution_param {
    num_output: 64
    pad: 1
    kernel_size: 3
  }
}
layer {
  name: "relu1_2"
  type: "ReLU"
  bottom: "conv1_2"
  top: "conv1_2"
}
layer {
  name: "pool1"
  type: "Pooling"
  bottom: "conv1_2"
  top: "pool1"
  pooling_param {
    pool: MAX
    kernel_size: 2
    stride: 2
  }
}
layer {
  name: "conv2_1"
  type: "Convolution"
  bottom: "pool1"
  top: "conv2_1"
  param {
    lr_mult: 0
  }
  param {
    lr_mult: 0
  }
  convolution_param {
    num_output: 128
    pad: 1
    kernel_size: 3
  }
}
layer {
  name: "relu2_1"
  type: "ReLU"
  bottom: "conv2_1"
  top: "conv2_1"
}
layer {
  name: "conv2_2"
  type: "Convolution"
  bottom: "conv2_1"
  top: "conv2_2"
  param {
    lr_mult: 0
  }
  param {
    lr_mult: 0
  }
  convolution_param {
    num_output: 128
    pad: 1
    kernel_size: 3
  }
}
layer {
  name: "relu2_2"
  type: "ReLU"
  bottom: "conv2_2"
  top: "conv2_2"
}
layer {
  name: "pool2"
  type: "Pooling"
  bottom: "conv2_2"
  top: "pool2"
  pooling_param {
    pool: MAX
    kernel_size: 2
    stride: 2
  }
}
layer {
  name: "conv3_1"
  type: "Convolution"
  bottom: "pool2"
  top: "conv3_1"
  param {
    lr_mult: 1
  }
  param {
    lr_mult: 2
  }
  convolution_param {
    num_output: 256
    pad: 1
    kernel_size: 3
  }
}
layer {
  name: "relu3_1"
  type: "ReLU"
  bottom: "conv3_1"
  top: "conv3_1"
}
layer {
  name: "conv3_2"
  type: "Convolution"
  bottom: "conv3_1"
  top: "conv3_2"
  param {
    lr_mult: 1
  }
  param {
    lr_mult: 2
  }
  convolution_param {
    num_output: 256
    pad: 1
    kernel_size: 3
  }
}
layer {
  name: "relu3_2"
  type: "ReLU"
  bottom: "conv3_2"
  top: "conv3_2"
}
layer {
  name: "conv3_3"
  type: "Convolution"
  bottom: "conv3_2"
  top: "conv3_3"
  param {
    lr_mult: 1
  }
  param {
    lr_mult: 2
  }
  convolution_param {
    num_output: 256
    pad: 1
    kernel_size: 3
  }
}
layer {
  name: "relu3_3"
  type: "ReLU"
  bottom: "conv3_3"
  top: "conv3_3"
}
layer {
  name: "pool3"
  type: "Pooling"
  bottom: "conv3_3"
  top: "pool3"
  pooling_param {
    pool: MAX
    kernel_size: 2
    stride: 2
  }
}
layer {
  name: "conv4_1_local_channel"
  type: "Convolution"
  bottom: "pool3"
  top: "conv4_1"
  param {
    lr_mult: 1
  }
  param {
    lr_mult: 2
  }
  convolution_param {
    pad: 1
    kernel_size: 3
    weight_filler {
      type: "xavier"
    }
    bias_filler {
      type: "constant"
      value: 0
    }
    force_local_channel: true
    kernel_c: 8
    stride_c: 4
    num_output_per_group: 8
  }
}
layer {
  name: "relu4_1"
  type: "ReLU"
  bottom: "conv4_1"
  top: "conv4_1"
}
layer {
  name: "conv4_2_local_channel"
  type: "Convolution"
  bottom: "conv4_1"
  top: "conv4_2"
  param {
    lr_mult: 1
  }
  param {
    lr_mult: 2
  }
  convolution_param {
    pad: 1
    kernel_size: 3
    weight_filler {
      type: "xavier"
    }
    bias_filler {
      type: "constant"
      value: 0
    }
    force_local_channel: true
    kernel_c: 8
    stride_c: 4
    num_output_per_group: 4
  }
}
layer {
  name: "relu4_2"
  type: "ReLU"
  bottom: "conv4_2"
  top: "conv4_2"
}
layer {
  name: "conv4_3_pointwise"
  type: "Convolution"
  bottom: "conv4_2"
  top: "conv4_3"
  param {
    lr_mult: 1
  }
  param {
    lr_mult: 2
  }
  convolution_param {
    num_output: 512
    pad: 0
    kernel_size: 1
    stride: 1
    weight_filler {
      type: "xavier"
    }
    bias_filler {
      type: "constant"
      value: 0
    }
  }
}
layer {
  name: "relu4_3"
  type: "ReLU"
  bottom: "conv4_3"
  top: "conv4_3"
}
layer {
  name: "pool4"
  type: "Pooling"
  bottom: "conv4_3"
  top: "pool4"
  pooling_param {
    pool: MAX
    kernel_size: 2
    stride: 2
  }
}
layer {
  name: "conv5_1_local_channel"
  type: "Convolution"
  bottom: "pool4"
  top: "conv5_1"
  param {
    lr_mult: 1
  }
  param {
    lr_mult: 2
  }
  convolution_param {
    pad: 1
    kernel_size: 3
    weight_filler {
      type: "xavier"
    }
    bias_filler {
      type: "constant"
      value: 0
    }
    force_local_channel: true
    kernel_c: 8
    stride_c: 4
    num_output_per_group: 8
  }
}
layer {
  name: "relu5_1"
  type: "ReLU"
  bottom: "conv5_1"
  top: "conv5_1"
}
layer {
  name: "conv5_2_local_channel"
  type: "Convolution"
  bottom: "conv5_1"
  top: "conv5_2"
  param {
    lr_mult: 1
  }
  param {
    lr_mult: 2
  }
  convolution_param {
    pad: 1
    kernel_size: 3
    weight_filler {
      type: "xavier"
    }
    bias_filler {
      type: "constant"
      value: 0
    }
    force_local_channel: true
    kernel_c: 8
    stride_c: 4
    num_output_per_group: 4
  }
}
layer {
  name: "relu5_2"
  type: "ReLU"
  bottom: "conv5_2"
  top: "conv5_2"
}
layer {
  name: "conv5_3_pointwise"
  type: "Convolution"
  bottom: "conv5_2"
  top: "conv5_3"
  param {
    lr_mult: 1
  }
  param {
    lr_mult: 2
  }
  convolution_param {
    num_output: 512
    pad: 0
    kernel_size: 1
    stride: 1
    weight_filler {
      type: "xavier"
    }
    bias_filler {
      type: "constant"
      value: 0
    }
  }
}
layer {
  name: "relu5_3"
  type: "ReLU"
  bottom: "conv5_3"
  top: "conv5_3"
}
layer {
  name: "pool5"
  type: "Pooling"
  bottom: "conv5_3"
  top: "pool5"
  pooling_param {
    pool: MAX
    kernel_size: 2
    stride: 2
  }
}
layer {
  name: "fc6"
  type: "InnerProduct"
  bottom: "pool5"
  top: "fc6"
  param {
    lr_mult: 1
  }
  param {
    lr_mult: 2
  }
  inner_product_param {
    num_output: 4096
  }
}
layer {
  name: "relu6"
  type: "ReLU"
  bottom: "fc6"
  top: "fc6"
}
layer {
  name: "drop6"
  type: "Dropout"
  bottom: "fc6"
  top: "fc6"
  dropout_param {
    dropout_ratio: 0.5
  }
}
layer {
  name: "fc7"
  type: "InnerProduct"
  bottom: "fc6"
  top: "fc7"
  param {
    lr_mult: 1
  }
  param {
    lr_mult: 2
  }
  inner_product_param {
    num_output: 4096
  }
}
layer {
  name: "relu7"
  type: "ReLU"
  bottom: "fc7"
  top: "fc7"
}
layer {
  name: "drop7"
  type: "Dropout"
  bottom: "fc7"
  top: "fc7"
  dropout_param {
    dropout_ratio: 0.5
  }
}
layer {
  name: "fc8"
  type: "InnerProduct"
  bottom: "fc7"
  top: "fc8"
  param {
    lr_mult: 1
    decay_mult: 1
  }
  param {
    lr_mult: 2
    decay_mult: 0
  }
  inner_product_param {
    num_output: 1000
    weight_filler {
      type: "xavier"
    }
    bias_filler {
      type: "constant"
      value: 0
    }
  }
}
layer {
  name: "loss"
  type: "SoftmaxWithLoss"
  bottom: "fc8"
  bottom: "label"
  top: "loss/loss"
}
layer {
  name: "accuracy/top1"
  type: "Accuracy"
  bottom: "fc8"
  bottom: "label"
  top: "accuracy@1"
  include {
    phase: TEST
  }
  accuracy_param {
    top_k: 1
  }
}
layer {
  name: "accuracy/top5"
  type: "Accuracy"
  bottom: "fc8"
  bottom: "label"
  top: "accuracy@5"
  include {
    phase: TEST
  }
  accuracy_param {
    top_k: 5
  }
}
I0405 19:19:50.407972 21568 layer_factory.hpp:77] Creating layer data
I0405 19:19:50.427453 21568 db_lmdb.cpp:35] Opened lmdb examples/imagenet/ilsvrc12_val_lmdb
I0405 19:19:50.442878 21568 net.cpp:84] Creating Layer data
I0405 19:19:50.442914 21568 net.cpp:380] data -> data
I0405 19:19:50.442934 21568 net.cpp:380] data -> label
I0405 19:19:50.442950 21568 data_transformer.cpp:25] Loading mean file from: /home/data/ImageNet/data/ilsvrc12/imagenet_mean.binaryproto
I0405 19:19:50.454468 21568 data_layer.cpp:45] output data size: 10,3,224,224
I0405 19:19:50.478718 21568 net.cpp:122] Setting up data
I0405 19:19:50.478756 21568 net.cpp:129] Top shape: 10 3 224 224 (1505280)
I0405 19:19:50.478765 21568 net.cpp:129] Top shape: 10 (10)
I0405 19:19:50.478770 21568 net.cpp:137] Memory required for data: 6021160
I0405 19:19:50.478780 21568 layer_factory.hpp:77] Creating layer label_data_1_split
I0405 19:19:50.478801 21568 net.cpp:84] Creating Layer label_data_1_split
I0405 19:19:50.478806 21568 net.cpp:406] label_data_1_split <- label
I0405 19:19:50.478819 21568 net.cpp:380] label_data_1_split -> label_data_1_split_0
I0405 19:19:50.478842 21568 net.cpp:380] label_data_1_split -> label_data_1_split_1
I0405 19:19:50.478857 21568 net.cpp:380] label_data_1_split -> label_data_1_split_2
I0405 19:19:50.479563 21568 net.cpp:122] Setting up label_data_1_split
I0405 19:19:50.479605 21568 net.cpp:129] Top shape: 10 (10)
I0405 19:19:50.479614 21568 net.cpp:129] Top shape: 10 (10)
I0405 19:19:50.479621 21568 net.cpp:129] Top shape: 10 (10)
I0405 19:19:50.479666 21568 net.cpp:137] Memory required for data: 6021280
I0405 19:19:50.479678 21568 layer_factory.hpp:77] Creating layer conv1_1
I0405 19:19:50.479713 21568 net.cpp:84] Creating Layer conv1_1
I0405 19:19:50.479725 21568 net.cpp:406] conv1_1 <- data
I0405 19:19:50.479743 21568 net.cpp:380] conv1_1 -> conv1_1
I0405 19:19:50.483896 21568 net.cpp:122] Setting up conv1_1
I0405 19:19:50.483934 21568 net.cpp:129] Top shape: 10 64 224 224 (32112640)
I0405 19:19:50.483942 21568 net.cpp:137] Memory required for data: 134471840
I0405 19:19:50.483968 21568 layer_factory.hpp:77] Creating layer relu1_1
I0405 19:19:50.483985 21568 net.cpp:84] Creating Layer relu1_1
I0405 19:19:50.483994 21568 net.cpp:406] relu1_1 <- conv1_1
I0405 19:19:50.484014 21568 net.cpp:367] relu1_1 -> conv1_1 (in-place)
I0405 19:19:50.485141 21568 net.cpp:122] Setting up relu1_1
I0405 19:19:50.485172 21568 net.cpp:129] Top shape: 10 64 224 224 (32112640)
I0405 19:19:50.485178 21568 net.cpp:137] Memory required for data: 262922400
I0405 19:19:50.485184 21568 layer_factory.hpp:77] Creating layer conv1_2
I0405 19:19:50.485206 21568 net.cpp:84] Creating Layer conv1_2
I0405 19:19:50.485214 21568 net.cpp:406] conv1_2 <- conv1_1
I0405 19:19:50.485229 21568 net.cpp:380] conv1_2 -> conv1_2
I0405 19:19:50.489018 21568 net.cpp:122] Setting up conv1_2
I0405 19:19:50.489055 21568 net.cpp:129] Top shape: 10 64 224 224 (32112640)
I0405 19:19:50.489063 21568 net.cpp:137] Memory required for data: 391372960
I0405 19:19:50.489082 21568 layer_factory.hpp:77] Creating layer relu1_2
I0405 19:19:50.489096 21568 net.cpp:84] Creating Layer relu1_2
I0405 19:19:50.489104 21568 net.cpp:406] relu1_2 <- conv1_2
I0405 19:19:50.489116 21568 net.cpp:367] relu1_2 -> conv1_2 (in-place)
I0405 19:19:50.489624 21568 net.cpp:122] Setting up relu1_2
I0405 19:19:50.489646 21568 net.cpp:129] Top shape: 10 64 224 224 (32112640)
I0405 19:19:50.489651 21568 net.cpp:137] Memory required for data: 519823520
I0405 19:19:50.489658 21568 layer_factory.hpp:77] Creating layer pool1
I0405 19:19:50.489673 21568 net.cpp:84] Creating Layer pool1
I0405 19:19:50.489681 21568 net.cpp:406] pool1 <- conv1_2
I0405 19:19:50.489692 21568 net.cpp:380] pool1 -> pool1
I0405 19:19:50.489938 21568 net.cpp:122] Setting up pool1
I0405 19:19:50.489956 21568 net.cpp:129] Top shape: 10 64 112 112 (8028160)
I0405 19:19:50.489962 21568 net.cpp:137] Memory required for data: 551936160
I0405 19:19:50.489969 21568 layer_factory.hpp:77] Creating layer conv2_1
I0405 19:19:50.489984 21568 net.cpp:84] Creating Layer conv2_1
I0405 19:19:50.489991 21568 net.cpp:406] conv2_1 <- pool1
I0405 19:19:50.490003 21568 net.cpp:380] conv2_1 -> conv2_1
I0405 19:19:50.494149 21568 net.cpp:122] Setting up conv2_1
I0405 19:19:50.494184 21568 net.cpp:129] Top shape: 10 128 112 112 (16056320)
I0405 19:19:50.494191 21568 net.cpp:137] Memory required for data: 616161440
I0405 19:19:50.494211 21568 layer_factory.hpp:77] Creating layer relu2_1
I0405 19:19:50.494230 21568 net.cpp:84] Creating Layer relu2_1
I0405 19:19:50.494237 21568 net.cpp:406] relu2_1 <- conv2_1
I0405 19:19:50.494248 21568 net.cpp:367] relu2_1 -> conv2_1 (in-place)
I0405 19:19:50.494757 21568 net.cpp:122] Setting up relu2_1
I0405 19:19:50.494781 21568 net.cpp:129] Top shape: 10 128 112 112 (16056320)
I0405 19:19:50.494786 21568 net.cpp:137] Memory required for data: 680386720
I0405 19:19:50.494792 21568 layer_factory.hpp:77] Creating layer conv2_2
I0405 19:19:50.494809 21568 net.cpp:84] Creating Layer conv2_2
I0405 19:19:50.494817 21568 net.cpp:406] conv2_2 <- conv2_1
I0405 19:19:50.494830 21568 net.cpp:380] conv2_2 -> conv2_2
I0405 19:19:50.501533 21568 net.cpp:122] Setting up conv2_2
I0405 19:19:50.501569 21568 net.cpp:129] Top shape: 10 128 112 112 (16056320)
I0405 19:19:50.501575 21568 net.cpp:137] Memory required for data: 744612000
I0405 19:19:50.501590 21568 layer_factory.hpp:77] Creating layer relu2_2
I0405 19:19:50.501603 21568 net.cpp:84] Creating Layer relu2_2
I0405 19:19:50.501610 21568 net.cpp:406] relu2_2 <- conv2_2
I0405 19:19:50.501621 21568 net.cpp:367] relu2_2 -> conv2_2 (in-place)
I0405 19:19:50.502117 21568 net.cpp:122] Setting up relu2_2
I0405 19:19:50.502141 21568 net.cpp:129] Top shape: 10 128 112 112 (16056320)
I0405 19:19:50.502146 21568 net.cpp:137] Memory required for data: 808837280
I0405 19:19:50.502152 21568 layer_factory.hpp:77] Creating layer pool2
I0405 19:19:50.502166 21568 net.cpp:84] Creating Layer pool2
I0405 19:19:50.502172 21568 net.cpp:406] pool2 <- conv2_2
I0405 19:19:50.502183 21568 net.cpp:380] pool2 -> pool2
I0405 19:19:50.502418 21568 net.cpp:122] Setting up pool2
I0405 19:19:50.502437 21568 net.cpp:129] Top shape: 10 128 56 56 (4014080)
I0405 19:19:50.502442 21568 net.cpp:137] Memory required for data: 824893600
I0405 19:19:50.502449 21568 layer_factory.hpp:77] Creating layer conv3_1
I0405 19:19:50.502465 21568 net.cpp:84] Creating Layer conv3_1
I0405 19:19:50.502475 21568 net.cpp:406] conv3_1 <- pool2
I0405 19:19:50.502487 21568 net.cpp:380] conv3_1 -> conv3_1
I0405 19:19:50.507020 21568 net.cpp:122] Setting up conv3_1
I0405 19:19:50.507053 21568 net.cpp:129] Top shape: 10 256 56 56 (8028160)
I0405 19:19:50.507061 21568 net.cpp:137] Memory required for data: 857006240
I0405 19:19:50.507081 21568 layer_factory.hpp:77] Creating layer relu3_1
I0405 19:19:50.507095 21568 net.cpp:84] Creating Layer relu3_1
I0405 19:19:50.507102 21568 net.cpp:406] relu3_1 <- conv3_1
I0405 19:19:50.507120 21568 net.cpp:367] relu3_1 -> conv3_1 (in-place)
I0405 19:19:50.507588 21568 net.cpp:122] Setting up relu3_1
I0405 19:19:50.507613 21568 net.cpp:129] Top shape: 10 256 56 56 (8028160)
I0405 19:19:50.507618 21568 net.cpp:137] Memory required for data: 889118880
I0405 19:19:50.507625 21568 layer_factory.hpp:77] Creating layer conv3_2
I0405 19:19:50.507642 21568 net.cpp:84] Creating Layer conv3_2
I0405 19:19:50.507648 21568 net.cpp:406] conv3_2 <- conv3_1
I0405 19:19:50.507660 21568 net.cpp:380] conv3_2 -> conv3_2
I0405 19:19:50.514693 21568 net.cpp:122] Setting up conv3_2
I0405 19:19:50.514724 21568 net.cpp:129] Top shape: 10 256 56 56 (8028160)
I0405 19:19:50.514731 21568 net.cpp:137] Memory required for data: 921231520
I0405 19:19:50.514744 21568 layer_factory.hpp:77] Creating layer relu3_2
I0405 19:19:50.514757 21568 net.cpp:84] Creating Layer relu3_2
I0405 19:19:50.514765 21568 net.cpp:406] relu3_2 <- conv3_2
I0405 19:19:50.514775 21568 net.cpp:367] relu3_2 -> conv3_2 (in-place)
I0405 19:19:50.515689 21568 net.cpp:122] Setting up relu3_2
I0405 19:19:50.515720 21568 net.cpp:129] Top shape: 10 256 56 56 (8028160)
I0405 19:19:50.515727 21568 net.cpp:137] Memory required for data: 953344160
I0405 19:19:50.515733 21568 layer_factory.hpp:77] Creating layer conv3_3
I0405 19:19:50.515753 21568 net.cpp:84] Creating Layer conv3_3
I0405 19:19:50.515759 21568 net.cpp:406] conv3_3 <- conv3_2
I0405 19:19:50.515771 21568 net.cpp:380] conv3_3 -> conv3_3
I0405 19:19:50.522308 21568 net.cpp:122] Setting up conv3_3
I0405 19:19:50.522346 21568 net.cpp:129] Top shape: 10 256 56 56 (8028160)
I0405 19:19:50.522351 21568 net.cpp:137] Memory required for data: 985456800
I0405 19:19:50.522363 21568 layer_factory.hpp:77] Creating layer relu3_3
I0405 19:19:50.522375 21568 net.cpp:84] Creating Layer relu3_3
I0405 19:19:50.522382 21568 net.cpp:406] relu3_3 <- conv3_3
I0405 19:19:50.522392 21568 net.cpp:367] relu3_3 -> conv3_3 (in-place)
I0405 19:19:50.523808 21568 net.cpp:122] Setting up relu3_3
I0405 19:19:50.523839 21568 net.cpp:129] Top shape: 10 256 56 56 (8028160)
I0405 19:19:50.523845 21568 net.cpp:137] Memory required for data: 1017569440
I0405 19:19:50.523851 21568 layer_factory.hpp:77] Creating layer pool3
I0405 19:19:50.523865 21568 net.cpp:84] Creating Layer pool3
I0405 19:19:50.523871 21568 net.cpp:406] pool3 <- conv3_3
I0405 19:19:50.523883 21568 net.cpp:380] pool3 -> pool3
I0405 19:19:50.524111 21568 net.cpp:122] Setting up pool3
I0405 19:19:50.524127 21568 net.cpp:129] Top shape: 10 256 28 28 (2007040)
I0405 19:19:50.524132 21568 net.cpp:137] Memory required for data: 1025597600
I0405 19:19:50.524138 21568 layer_factory.hpp:77] Creating layer conv4_1_local_channel
I0405 19:19:50.524186 21568 net.cpp:84] Creating Layer conv4_1_local_channel
I0405 19:19:50.524196 21568 net.cpp:406] conv4_1_local_channel <- pool3
I0405 19:19:50.524209 21568 net.cpp:380] conv4_1_local_channel -> conv4_1
I0405 19:19:50.642145 21568 net.cpp:122] Setting up conv4_1_local_channel
I0405 19:19:50.642194 21568 net.cpp:129] Top shape: 10 512 28 28 (4014080)
I0405 19:19:50.642202 21568 net.cpp:137] Memory required for data: 1041653920
I0405 19:19:50.642221 21568 layer_factory.hpp:77] Creating layer relu4_1
I0405 19:19:50.642243 21568 net.cpp:84] Creating Layer relu4_1
I0405 19:19:50.642252 21568 net.cpp:406] relu4_1 <- conv4_1
I0405 19:19:50.642272 21568 net.cpp:367] relu4_1 -> conv4_1 (in-place)
I0405 19:19:50.643395 21568 net.cpp:122] Setting up relu4_1
I0405 19:19:50.643430 21568 net.cpp:129] Top shape: 10 512 28 28 (4014080)
I0405 19:19:50.643437 21568 net.cpp:137] Memory required for data: 1057710240
I0405 19:19:50.643447 21568 layer_factory.hpp:77] Creating layer conv4_2_local_channel
I0405 19:19:50.643479 21568 net.cpp:84] Creating Layer conv4_2_local_channel
I0405 19:19:50.643489 21568 net.cpp:406] conv4_2_local_channel <- conv4_1
I0405 19:19:50.643512 21568 net.cpp:380] conv4_2_local_channel -> conv4_2
I0405 19:19:50.867202 21568 net.cpp:122] Setting up conv4_2_local_channel
I0405 19:19:50.867242 21568 net.cpp:129] Top shape: 10 512 28 28 (4014080)
I0405 19:19:50.867249 21568 net.cpp:137] Memory required for data: 1073766560
I0405 19:19:50.867281 21568 layer_factory.hpp:77] Creating layer relu4_2
I0405 19:19:50.867300 21568 net.cpp:84] Creating Layer relu4_2
I0405 19:19:50.867307 21568 net.cpp:406] relu4_2 <- conv4_2
I0405 19:19:50.867317 21568 net.cpp:367] relu4_2 -> conv4_2 (in-place)
I0405 19:19:50.867818 21568 net.cpp:122] Setting up relu4_2
I0405 19:19:50.867843 21568 net.cpp:129] Top shape: 10 512 28 28 (4014080)
I0405 19:19:50.867848 21568 net.cpp:137] Memory required for data: 1089822880
I0405 19:19:50.867853 21568 layer_factory.hpp:77] Creating layer conv4_3_pointwise
I0405 19:19:50.867875 21568 net.cpp:84] Creating Layer conv4_3_pointwise
I0405 19:19:50.867882 21568 net.cpp:406] conv4_3_pointwise <- conv4_2
I0405 19:19:50.867897 21568 net.cpp:380] conv4_3_pointwise -> conv4_3
I0405 19:19:50.876606 21568 net.cpp:122] Setting up conv4_3_pointwise
I0405 19:19:50.876636 21568 net.cpp:129] Top shape: 10 512 28 28 (4014080)
I0405 19:19:50.876641 21568 net.cpp:137] Memory required for data: 1105879200
I0405 19:19:50.876653 21568 layer_factory.hpp:77] Creating layer relu4_3
I0405 19:19:50.876667 21568 net.cpp:84] Creating Layer relu4_3
I0405 19:19:50.876674 21568 net.cpp:406] relu4_3 <- conv4_3
I0405 19:19:50.876687 21568 net.cpp:367] relu4_3 -> conv4_3 (in-place)
I0405 19:19:50.877161 21568 net.cpp:122] Setting up relu4_3
I0405 19:19:50.877182 21568 net.cpp:129] Top shape: 10 512 28 28 (4014080)
I0405 19:19:50.877187 21568 net.cpp:137] Memory required for data: 1121935520
I0405 19:19:50.877194 21568 layer_factory.hpp:77] Creating layer pool4
I0405 19:19:50.877210 21568 net.cpp:84] Creating Layer pool4
I0405 19:19:50.877215 21568 net.cpp:406] pool4 <- conv4_3
I0405 19:19:50.877224 21568 net.cpp:380] pool4 -> pool4
I0405 19:19:50.877511 21568 net.cpp:122] Setting up pool4
I0405 19:19:50.877526 21568 net.cpp:129] Top shape: 10 512 14 14 (1003520)
I0405 19:19:50.877532 21568 net.cpp:137] Memory required for data: 1125949600
I0405 19:19:50.877537 21568 layer_factory.hpp:77] Creating layer conv5_1_local_channel
I0405 19:19:50.877554 21568 net.cpp:84] Creating Layer conv5_1_local_channel
I0405 19:19:50.877560 21568 net.cpp:406] conv5_1_local_channel <- pool4
I0405 19:19:50.877573 21568 net.cpp:380] conv5_1_local_channel -> conv5_1
I0405 19:19:51.109441 21568 net.cpp:122] Setting up conv5_1_local_channel
I0405 19:19:51.109472 21568 net.cpp:129] Top shape: 10 1024 14 14 (2007040)
I0405 19:19:51.109477 21568 net.cpp:137] Memory required for data: 1133977760
I0405 19:19:51.109489 21568 layer_factory.hpp:77] Creating layer relu5_1
I0405 19:19:51.109503 21568 net.cpp:84] Creating Layer relu5_1
I0405 19:19:51.109510 21568 net.cpp:406] relu5_1 <- conv5_1
I0405 19:19:51.109551 21568 net.cpp:367] relu5_1 -> conv5_1 (in-place)
I0405 19:19:51.110399 21568 net.cpp:122] Setting up relu5_1
I0405 19:19:51.110424 21568 net.cpp:129] Top shape: 10 1024 14 14 (2007040)
I0405 19:19:51.110430 21568 net.cpp:137] Memory required for data: 1142005920
I0405 19:19:51.110437 21568 layer_factory.hpp:77] Creating layer conv5_2_local_channel
I0405 19:19:51.110456 21568 net.cpp:84] Creating Layer conv5_2_local_channel
I0405 19:19:51.110462 21568 net.cpp:406] conv5_2_local_channel <- conv5_1
I0405 19:19:51.110476 21568 net.cpp:380] conv5_2_local_channel -> conv5_2
I0405 19:19:51.403221 21568 net.cpp:122] Setting up conv5_2_local_channel
I0405 19:19:51.403259 21568 net.cpp:129] Top shape: 10 1024 14 14 (2007040)
I0405 19:19:51.403264 21568 net.cpp:137] Memory required for data: 1150034080
I0405 19:19:51.403282 21568 layer_factory.hpp:77] Creating layer relu5_2
I0405 19:19:51.403293 21568 net.cpp:84] Creating Layer relu5_2
I0405 19:19:51.403298 21568 net.cpp:406] relu5_2 <- conv5_2
I0405 19:19:51.403307 21568 net.cpp:367] relu5_2 -> conv5_2 (in-place)
I0405 19:19:51.403594 21568 net.cpp:122] Setting up relu5_2
I0405 19:19:51.403609 21568 net.cpp:129] Top shape: 10 1024 14 14 (2007040)
I0405 19:19:51.403612 21568 net.cpp:137] Memory required for data: 1158062240
I0405 19:19:51.403616 21568 layer_factory.hpp:77] Creating layer conv5_3_pointwise
I0405 19:19:51.403631 21568 net.cpp:84] Creating Layer conv5_3_pointwise
I0405 19:19:51.403635 21568 net.cpp:406] conv5_3_pointwise <- conv5_2
I0405 19:19:51.403642 21568 net.cpp:380] conv5_3_pointwise -> conv5_3
I0405 19:19:51.411420 21568 net.cpp:122] Setting up conv5_3_pointwise
I0405 19:19:51.411438 21568 net.cpp:129] Top shape: 10 512 14 14 (1003520)
I0405 19:19:51.411442 21568 net.cpp:137] Memory required for data: 1162076320
I0405 19:19:51.411450 21568 layer_factory.hpp:77] Creating layer relu5_3
I0405 19:19:51.411458 21568 net.cpp:84] Creating Layer relu5_3
I0405 19:19:51.411461 21568 net.cpp:406] relu5_3 <- conv5_3
I0405 19:19:51.411469 21568 net.cpp:367] relu5_3 -> conv5_3 (in-place)
I0405 19:19:51.412120 21568 net.cpp:122] Setting up relu5_3
I0405 19:19:51.412137 21568 net.cpp:129] Top shape: 10 512 14 14 (1003520)
I0405 19:19:51.412140 21568 net.cpp:137] Memory required for data: 1166090400
I0405 19:19:51.412144 21568 layer_factory.hpp:77] Creating layer pool5
I0405 19:19:51.412164 21568 net.cpp:84] Creating Layer pool5
I0405 19:19:51.412168 21568 net.cpp:406] pool5 <- conv5_3
I0405 19:19:51.412174 21568 net.cpp:380] pool5 -> pool5
I0405 19:19:51.412426 21568 net.cpp:122] Setting up pool5
I0405 19:19:51.412437 21568 net.cpp:129] Top shape: 10 512 7 7 (250880)
I0405 19:19:51.412441 21568 net.cpp:137] Memory required for data: 1167093920
I0405 19:19:51.412443 21568 layer_factory.hpp:77] Creating layer fc6
I0405 19:19:51.412456 21568 net.cpp:84] Creating Layer fc6
I0405 19:19:51.412459 21568 net.cpp:406] fc6 <- pool5
I0405 19:19:51.412467 21568 net.cpp:380] fc6 -> fc6
I0405 19:19:51.718838 21568 net.cpp:122] Setting up fc6
I0405 19:19:51.718895 21568 net.cpp:129] Top shape: 10 4096 (40960)
I0405 19:19:51.718900 21568 net.cpp:137] Memory required for data: 1167257760
I0405 19:19:51.718940 21568 layer_factory.hpp:77] Creating layer relu6
I0405 19:19:51.718955 21568 net.cpp:84] Creating Layer relu6
I0405 19:19:51.718971 21568 net.cpp:406] relu6 <- fc6
I0405 19:19:51.718986 21568 net.cpp:367] relu6 -> fc6 (in-place)
I0405 19:19:51.719578 21568 net.cpp:122] Setting up relu6
I0405 19:19:51.719593 21568 net.cpp:129] Top shape: 10 4096 (40960)
I0405 19:19:51.719595 21568 net.cpp:137] Memory required for data: 1167421600
I0405 19:19:51.719599 21568 layer_factory.hpp:77] Creating layer drop6
I0405 19:19:51.719610 21568 net.cpp:84] Creating Layer drop6
I0405 19:19:51.719614 21568 net.cpp:406] drop6 <- fc6
I0405 19:19:51.719619 21568 net.cpp:367] drop6 -> fc6 (in-place)
I0405 19:19:51.719866 21568 net.cpp:122] Setting up drop6
I0405 19:19:51.719877 21568 net.cpp:129] Top shape: 10 4096 (40960)
I0405 19:19:51.719880 21568 net.cpp:137] Memory required for data: 1167585440
I0405 19:19:51.719914 21568 layer_factory.hpp:77] Creating layer fc7
I0405 19:19:51.719923 21568 net.cpp:84] Creating Layer fc7
I0405 19:19:51.719928 21568 net.cpp:406] fc7 <- fc6
I0405 19:19:51.719935 21568 net.cpp:380] fc7 -> fc7
I0405 19:19:51.770115 21568 net.cpp:122] Setting up fc7
I0405 19:19:51.770165 21568 net.cpp:129] Top shape: 10 4096 (40960)
I0405 19:19:51.770169 21568 net.cpp:137] Memory required for data: 1167749280
I0405 19:19:51.770184 21568 layer_factory.hpp:77] Creating layer relu7
I0405 19:19:51.770200 21568 net.cpp:84] Creating Layer relu7
I0405 19:19:51.770203 21568 net.cpp:406] relu7 <- fc7
I0405 19:19:51.770211 21568 net.cpp:367] relu7 -> fc7 (in-place)
I0405 19:19:51.770627 21568 net.cpp:122] Setting up relu7
I0405 19:19:51.770640 21568 net.cpp:129] Top shape: 10 4096 (40960)
I0405 19:19:51.770643 21568 net.cpp:137] Memory required for data: 1167913120
I0405 19:19:51.770647 21568 layer_factory.hpp:77] Creating layer drop7
I0405 19:19:51.770656 21568 net.cpp:84] Creating Layer drop7
I0405 19:19:51.770659 21568 net.cpp:406] drop7 <- fc7
I0405 19:19:51.770666 21568 net.cpp:367] drop7 -> fc7 (in-place)
I0405 19:19:51.770798 21568 net.cpp:122] Setting up drop7
I0405 19:19:51.770817 21568 net.cpp:129] Top shape: 10 4096 (40960)
I0405 19:19:51.770820 21568 net.cpp:137] Memory required for data: 1168076960
I0405 19:19:51.770824 21568 layer_factory.hpp:77] Creating layer fc8
I0405 19:19:51.770834 21568 net.cpp:84] Creating Layer fc8
I0405 19:19:51.770838 21568 net.cpp:406] fc8 <- fc7
I0405 19:19:51.770848 21568 net.cpp:380] fc8 -> fc8
I0405 19:19:51.804006 21568 net.cpp:122] Setting up fc8
I0405 19:19:51.804024 21568 net.cpp:129] Top shape: 10 1000 (10000)
I0405 19:19:51.804028 21568 net.cpp:137] Memory required for data: 1168116960
I0405 19:19:51.804035 21568 layer_factory.hpp:77] Creating layer fc8_fc8_0_split
I0405 19:19:51.804046 21568 net.cpp:84] Creating Layer fc8_fc8_0_split
I0405 19:19:51.804050 21568 net.cpp:406] fc8_fc8_0_split <- fc8
I0405 19:19:51.804056 21568 net.cpp:380] fc8_fc8_0_split -> fc8_fc8_0_split_0
I0405 19:19:51.804070 21568 net.cpp:380] fc8_fc8_0_split -> fc8_fc8_0_split_1
I0405 19:19:51.804080 21568 net.cpp:380] fc8_fc8_0_split -> fc8_fc8_0_split_2
I0405 19:19:51.804440 21568 net.cpp:122] Setting up fc8_fc8_0_split
I0405 19:19:51.804450 21568 net.cpp:129] Top shape: 10 1000 (10000)
I0405 19:19:51.804453 21568 net.cpp:129] Top shape: 10 1000 (10000)
I0405 19:19:51.804457 21568 net.cpp:129] Top shape: 10 1000 (10000)
I0405 19:19:51.804460 21568 net.cpp:137] Memory required for data: 1168236960
I0405 19:19:51.804463 21568 layer_factory.hpp:77] Creating layer loss
I0405 19:19:51.804471 21568 net.cpp:84] Creating Layer loss
I0405 19:19:51.804473 21568 net.cpp:406] loss <- fc8_fc8_0_split_0
I0405 19:19:51.804486 21568 net.cpp:406] loss <- label_data_1_split_0
I0405 19:19:51.804492 21568 net.cpp:380] loss -> loss/loss
…
